DGMG/model.pth (torch_old, 987819 bytes, 35 tensors)

weight f4 [1, 64]
000000 d0 3d a9 3e b3 cc be 3c e0 a4 e6 3d ef e8 4d be
       0.33054972 0.023290968 0.11261916 -0.20108388
000010 b9 53 6b bd a7 fc 84 be cc 64 47 be b5 20 49 3d
       -0.05745289 -0.25974008 -0.19472045 0.049103457
000020 e7 c9 90 bd 9f bb 80 bd 35 ab 75 bc d1 46 82 3e
       -0.0706976 -0.06285786 -0.014994432 0.25444654
000030 69 d1 83 bd e5 d0 13 bd ce 23 d0 3d cb b1 3a 3e
       -0.06436426 -0.03608789 0.10163079 0.18231885
000040 1f 7a bf be 17 11 0e 3e a8 99 9a 3c 3a 17 77 be
       -0.37397859 0.13873707 0.018872097 -0.24129954
000050 c2 93 1e 3e 0f a8 c5 3d 15 98 60 3e 21 c3 52 3d
       0.15486053 0.09651195 0.21933015 0.05145562
000060 4e 01 6f bb d7 21 69 3d dd ab e8 bd 5d b2 94 3e
       -0.0036469284 0.056917038 -0.11360905 0.2904233
000070 58 c9 82 be 80 b1 9c 3e f0 60 99 3d b0 6d 40 bd
       -0.25544238 0.30604172 0.074891925 -0.046979606
000080 d2 4b 7c be 06 c9 59 be 5e b4 84 3d 02 d7 98 be
       -0.24638298 -0.2126809 0.06479715 -0.29851538
000090 54 b2 bc 3e 72 63 a7 bd 54 28 6e be 35 27 2b be
       0.36854804 -0.081732646 -0.23257571 -0.16714175
0000a0 9c 75 0e be d1 ee de 3d 71 8a 81 be 03 85 83 3d
       -0.13912052 0.10885394 -0.25300935 0.06421854
0000b0 e1 05 be bc 2d 3d f0 3d 2b c4 2a bd 9a 93 b4 be
       -0.023196163 0.11730418 -0.041690987 -0.3526886
0000c0 99 3f 1e 3e 8a aa 89 3e 66 44 c9 3d 4e fa 4b 3e
       0.15453948 0.26887923 0.09827499 0.19919702
0000d0 35 0b 9e be a4 91 6d 3d 04 a7 dc bd 0b 20 54 3d
       -0.30867925 0.05800022 -0.10774043 0.05178837
0000e0 8d 78 40 3e a0 56 46 3e 24 a9 6a bc 43 a9 5a bd
       0.18795986 0.19368982 -0.014322553 -0.053384077
0000f0 84 c6 41 3e a2 d5 13 bd aa dd 84 3d 72 bf 2b 3e
       0.18923384 -0.036092408 0.064875916 0.1677225

weight f4 [128, 64]
000000 8e 49 25 be af 93 cf 3d 44 8d fd 3c ae 57 17 be
       -0.1614134 0.1013559 0.03095115 -0.14779541
000010 33 69 05 be 6c 80 8e bd 39 af 96 bd 87 ea f1 bd
       -0.13028412 -0.06958088 -0.0735764 -0.11812311
000020 07 f6 ba bc a7 60 e3 3d 7a b9 30 3d fa f9 04 bc
       -0.022822393 0.11102419 0.043145634 -0.00811624
000030 b6 42 aa 3d 52 db 25 3e fb 99 9d 3d 5c c6 b8 3d
       0.08313505 0.16196945 0.07695385 0.09022209
000040 4e 4c 34 3b 10 c2 15 be 58 52 8d 3d 36 fd 56 bd
       0.0027511301 -0.1462481 0.069004714 -0.052487575
000050 76 30 57 be 19 b4 8c ba bb 95 e6 3d 3e 83 d0 bd
       -0.2101458 -0.0010734826 0.112590276 -0.101812825
000060 b1 75 ac bd f2 10 87 3c 0b f9 24 bd 99 1c 4f 3d
       -0.08420885 0.016487572 -0.04027657 0.050564382
000070 4d 42 0b be 60 50 9f 3d fc 56 b3 3b db 41 56 3d
       -0.1359951 0.07779002 0.005473016 0.0523089
000080 4a 85 09 be 24 3f 77 3e 73 83 e1 bd 11 7f d0 bd
       -0.13429752 0.2414518 -0.110114 -0.10180486
000090 1d be 88 3e aa 85 37 3d ec 17 e8 3c db 62 ad 3c
       0.26707545 0.044805206 0.02833172 0.021165302
0000a0 56 ad 46 3b c2 4f c8 bb 9d e8 76 3d e6 fe 8a bb
       0.0030315719 -0.0061130235 0.06028043 -0.004241812
0000b0 e1 af 83 bb 90 ac 3f 3e 06 79 08 3e cf 66 75 bd
       -0.004018769 0.18718171 0.13327417 -0.0599125
0000c0 27 4a 79 bd 20 d0 c7 bd b9 66 70 be 67 68 84 3d
       -0.060861733 -0.097564936 -0.23476686 0.06465226
0000d0 fa e8 e6 bc a6 1d 2b bd f7 a3 21 3e 13 da 3d 3e
       -0.028187264 -0.04177632 0.15785204 0.1854022
0000e0 44 7a 87 be be fa a7 3d ff 1c f5 bd b9 dc 8e 3d
       -0.2646047 0.08202122 -0.11968421 0.06975693
0000f0 16 8c 75 3d 2a ad 93 bd 5c 79 1a bd 46 4b 3b 3d
       0.05994805 -0.07210763 -0.037713394 0.045726083
000100 08 d0 b3 be 31 5f 2a 3e d2 4b 09 bb e7 57 6d bd
       -0.35119653 0.16637875 -0.0020949733 -0.05794516
000110 bf df 11 3c c3 2b db 3c 00 80 e7 3c ff 41 39 3d
       0.008903443 0.026754266 0.028259277 0.045228954
000120 45 50 90 3d aa 7b 93 3c 0b 52 ab bd 73 8e 43 bd
       0.0704656 0.018003304 -0.08365258 -0.047743272
000130 ab 11 bd 3c 55 2c 80 bd 1b 52 88 3d 74 28 d8 3d
       0.023079714 -0.06258456 0.066562854 0.10554591
000140 f4 0d 32 3e 70 14 7a 39 82 16 5e 3d 0b 64 9b 3a
       0.17388135 0.00023849471 0.054220684 0.0011855377
000150 6c 97 23 3d 2e 03 31 be fc 86 3d be 61 66 9b bd
       0.03993933 -0.17286369 -0.18508524 -0.075878866
000160 1b bc 46 3d a5 1c 31 bd 39 8f 4c 3d 7a 2e e5 3d
       0.048519235 -0.04324021 0.049941275 0.11190505
000170 a1 61 b0 3d 34 05 53 bd 09 28 a1 bc 43 99 c7 3c
       0.08612371 -0.051518634 -0.01967241 0.024365073
000180 ea 0f 2b be fa b4 1d be 84 40 0c be c4 46 00 be
       -0.1670529 -0.15401068 -0.13696486 -0.12526995
000190 d3 3f d5 bb 6a 2e 0e 3d 5b 64 07 be e7 98 18 be
       -0.0065078526 0.034712233 -0.13221876 -0.14902078
0001a0 c3 90 a9 3d ae 54 bf bd 6f 59 c1 bd e2 b0 69 bd
       0.08279564 -0.09342323 -0.09440886 -0.057053454
0001b0 da 02 bb bd 60 16 89 bd cf 0d 2f 3d 60 e9 53 be
       -0.09131403 -0.06693721 0.04273778 -0.20694494
0001c0 26 60 e7 3d af 4a b1 3d b8 c2 c2 bb bf ea 15 be
       0.11297636 0.08656823 -0.0059436224 -0.1464033
0001d0 e7 ab 92 3d ba 62 27 be b9 2c 88 bc a6 e7 01 3e
       0.07161694 -0.16346255 -0.016622888 0.12686023
0001e0 ab a5 41 bd 38 97 af 3d 9c 45 b2 3c d8 fd 0a bd
       -0.047277134 0.085737646 0.021761708 -0.03393349
0001f0 ab 27 14 3e 0d c5 e6 bc b1 d7 1a 3e 79 83 1f 3d
       0.14468257 -0.028170133 0.15121342 0.03894374
000200 c3 14 1e be eb 45 e2 bd 49 94 84 3d 63 0b 51 bd
       -0.15437607 -0.11048492 0.06473596 -0.05103625
000210 62 20 6a bd 75 da 12 3d e8 3b 40 be 05 5c 6e bc
       -0.05715979 0.035852868 -0.18772852 -0.014548306
000220 df 32 f9 3d 54 96 b0 bd e6 a5 4f 3d ec 2e 3e 3c
       0.12167906 -0.08622423 0.050695322 0.011607867
000230 17 34 54 bd 5f 03 8f 3d 30 76 fa bd fb fc a3 3d
       -0.05180749 0.06983065 -0.12229574 0.080072366
000240 7e 04 35 be 0b 29 28 3e fd 6e 86 bb 14 91 ad bd
       -0.17677495 0.16421907 -0.0041025863 -0.08474937
000250 f3 6d 4e 3e 54 2d 4a 3d d0 6a f1 3c 87 4b 06 3e
       0.2015913 0.049359635 0.029469877 0.13114749
000260 71 2a bb bd 11 07 ec bc 81 b8 ad 3d e1 6d 06 3c
       -0.091389544 -0.028811963 0.08482457 0.008204908
000270 a5 91 f1 bb 04 4f 07 bd a1 d5 81 3d 63 7e 70 3d
       -0.0073720985 -0.03303434 0.063395746 0.05871428
000280 25 f2 4f bc e2 32 51 bd 65 3e 78 3d e9 b0 50 3c
       -0.012692009 -0.051073916 0.06060638 0.012737491
000290 fa f4 b5 bd 32 48 68 bd b3 a1 66 bd ac 73 5b 3e
       -0.08884616 -0.056709476 -0.056306552 0.21430844
0002a0 9d d0 00 be 50 d9 27 bd 1d 0f a4 bc 73 4c b4 bd
       -0.1257958 -0.04097873 -0.020026738 -0.08803644
0002b0 0a 69 ae 3a b9 d9 9b ba b3 b6 ae 3d 1d c4 69 3c
       0.001330645 -0.0011890448 0.08530941 0.014267948
0002c0 c5 92 1f be ea 6d df bd e8 74 6f bd 5e 3c 47 3e
       -0.15583332 -0.10909636 -0.0584611 0.19456622
0002d0 f6 8d 42 bd c6 a4 c8 3d 14 a0 c5 bd c8 be 6a bc
       -0.047498666 0.09797053 -0.09649673 -0.014327712
0002e0 bd 33 b6 3d 51 5b cf 3d 0c d7 d4 3d e3 0f 3d 3d
       0.08896587 0.10124839 0.103925794 0.04615773
0002f0 80 f7 61 bd 97 ad ab bd ee 99 09 3d ac d3 5c bc
       -0.055167675 -0.08382719 0.033594064 -0.013478201
000300 ff 0e 24 3e 13 b6 27 3d 2c 65 fe 3a 79 11 71 bc
       0.16021346 0.040945124 0.0019408814 -0.014713638
000310 aa 07 b7 ba e4 59 6c 3d 88 60 1d bd d3 69 d3 bd
       -0.0013964076 0.057702914 -0.038422137 -0.10322919
000320 4a 26 32 bc 11 66 4b bd b1 f7 dd bd fc b0 03 be
       -0.010873387 -0.049657885 -0.10838259 -0.12860483
000330 3c 77 76 3d 49 20 2f 3d 9c 4b 8e 3d f2 48 57 3e
       0.060172305 0.0427554 0.06948015 0.2102392
000340 74 91 aa bd 8b 42 a8 3d b5 e6 67 bd 83 2b 34 bc
       -0.08328524 0.08215817 -0.056616504 -0.010996702
000350 17 d1 85 3b 96 4c b4 3d 64 c7 54 bd e8 f9 f1 bc
       0.0040837633 0.0880367 -0.051947966 -0.02953811
000360 2d 56 b9 3c eb 57 9f 3d 71 27 d6 3d ca 84 23 3e
       0.0226241 0.07780441 0.104567416 0.15968624
000370 df 5c bb ba 0d c2 1c 3e 2b fc aa bd 9e 67 1d be
       -0.0014294646 0.153084 -0.083488785 -0.15371558
000380 e5 c1 09 bd 44 fb 78 bc 28 31 b9 3d 71 ac e9 3d
       -0.033632178 -0.015196625 0.09042579 0.11409844
000390 e2 30 ea 3c a7 04 af bd 54 92 f3 bd b3 db fb 3d
       0.028587762 -0.08545809 -0.11893144 0.12297764
0003a0 32 48 b3 3c 80 bd 3d 3d 20 b6 51 3e 2c 03 2a 3b
       0.021885011 0.0463233 0.20479631 0.0025941832
0003b0 0d 06 08 3e d3 32 87 3d 71 b1 85 bd da 68 b3 3c
       0.13283558 0.06601491 -0.06527985 0.021900583
0003c0 cf e9 92 bd 9d f7 b2 3c dc 30 e9 bd dd aa 4b be
       -0.07173502 0.021846587 -0.11386272 -0.19889398
0003d0 72 48 84 bc 92 15 30 3d fe 94 23 3d bf b7 91 3d
       -0.016147826 0.04298932 0.039937012 0.07115125
0003e0 91 00 6f 3c 02 46 a7 bc 86 4d 33 be 80 ed 0e be
       0.014587537 -0.020419125 -0.17510042 -0.13957787
0003f0 ee 33 27 bd 0c 14 74 3d eb f3 34 3e 02 bc 19 3d
       -0.04082101 0.05958943 0.17671172 0.037532814

bias f4 [128]
000000 8c da 9b bf 44 4a 33 be 13 74 c7 3e 14 fb 5e bf
       -1.217607 -0.17508799 0.38955745 -0.87101865
000010 29 0a 05 3f a3 b1 0e bf 2c a4 19 be d3 d7 1b 40
       0.5196863 -0.557398 -0.15004033 2.4350479
000020 05 52 2e bd 0e 56 a0 3f e1 e0 22 3f 2f 22 c1 3f
       -0.04255869 1.2526262 0.6362439 1.5088557
000030 2b 2f ed bd b0 e2 c1 bd 12 24 ae 3c 21 21 05 bd
       -0.11581262 -0.09467065 0.021257434 -0.032502297
000040 9c 7b 7c bf 43 8b a2 3f f7 e3 06 bf 6c a9 16 bf
       -0.9862611 1.2698749 -0.52691597 -0.5885227
000050 cd 19 db 3e 18 0f b3 be 32 cf 44 3f 72 1b 10 3f
       0.42793122 -0.34972453 0.76878655 0.5629188
000060 ca 33 25 c0 a7 f9 99 3f 36 a1 b5 bf c4 6b 90 3e
       -2.581286 1.2029313 -1.4189823 0.2820722
000070 df 8a 14 40 d8 84 74 3f be b2 24 3f ff 8d a2 3e
       2.320976 0.95515203 0.6433524 0.3174896
000080 fa 1b 82 3f e0 94 af bd 8a d7 92 bf 08 a1 79 be
       1.0164788 -0.085733175 -1.1472027 -0.24377835
000090 d2 23 00 40 1f 34 3c bf 15 9c b7 be 2d e0 b1 bf
       2.0021863 -0.7351703 -0.3586127 -1.3896538
0000a0 af 59 51 be 70 72 98 bf e2 8c ed bb 89 39 af 3f
       -0.20444368 -1.1909924 -0.0072494606 1.3689433
0000b0 25 85 a7 3e 4f bf ba 3f 02 88 98 be ad 93 11 bf
       0.3271877 1.4589633 -0.29791266 -0.5686596
0000c0 ac a1 39 3e 04 b3 b7 be 8f 25 c0 bd a5 d1 a4 bf
       0.18128079 -0.35878766 -0.09382164 -1.2876478
0000d0 be c5 89 3f 3f a6 1d bf 65 bc 2a 3f 85 0f 14 be
       1.0763471 -0.61581796 0.6669372 -0.14459045
0000e0 f2 d4 c5 3f c0 73 26 3d cf eb d2 bd a0 17 b4 3f
       1.5455611 0.04063773 -0.10298883 1.406971
0000f0 24 bb f8 bd af 3d 9c 3e 1c aa c7 bf 09 b5 37 bf
       -0.12145069 0.3051581 -1.5598788 -0.7176061
000100 db fe 7e bd c8 d9 14 3f b2 87 f2 3e d2 3f c8 3e
       -0.062254768 0.5814481 0.47369152 0.3911119
000110 98 20 1b 3f ce c9 5c 3e d9 32 b2 bf a5 df 48 bf
       0.6059661 0.21561357 -1.3921767 -0.78466254
000120 9e 83 c5 3f ee 12 c3 bf d4 78 32 bf 0f 4e 04 c0
       1.5430791 -1.5240152 -0.6971562 -2.0672643
000130 d8 06 8e be 4d 11 a7 bf 43 cd 7d 3e 67 ce a2 3f
       -0.27739596 -1.3052155 0.24785332 1.2719239
000140 1e 31 be 3e 54 c8 1a bc cb 38 14 bf ca 25 0e 3f
       0.37146848 -0.009447176 -0.5789916 0.5552641
000150 80 2b f7 3f fb e6 98 bd 94 28 2f c0 5d 30 b7 3f
       1.931015 -0.07465931 -2.7368517 1.4311634
000160 7b 78 af bf 4c 37 1d bf 40 61 2a 3d 59 7b 98 3f
       -1.3708643 -0.614125 0.04159665 1.1912643
000170 46 30 b1 3f aa ee c3 bf 77 ed 92 bf e8 c7 b6 3f
       1.3842857 -1.530721 -1.1478719 1.4279757
000180 3b 2d c7 bf 35 c1 19 be fc 15 01 bf 92 61 10 3f
       -1.5560678 -0.15015109 -0.5042417 0.5639888
000190 ad 45 05 be 15 d9 37 bf aa 37 96 3f 78 a9 b7 bf
       -0.1301486 -0.71815616 1.1735737 -1.4348593
0001a0 be ea c5 3f 16 d8 19 bf d4 cf bf 3e b6 e6 07 bf
       1.5462263 -0.60095346 0.37463248 -0.5308641
0001b0 a1 8b 2e 3f 6f bd 8d 3f 98 c1 80 3f 86 2b ac 3f
       0.68181807 1.1073436 1.005908 1.3450782
0001c0 3e 4c 96 bf 9e c5 fb be 4f 07 56 be b4 d7 6e bf
       -1.1742017 -0.49174207 -0.20901226 -0.93297887
0001d0 68 1c 84 bf a4 7f 4c be d9 65 cb be b4 6b ff 3d
       -1.0321169 -0.19970566 -0.3972614 0.124717146
0001e0 8e e2 a2 3c ad 20 91 3f 2b 4c 8b bc 76 c4 ba be
       0.01988342 1.1338097 -0.017004093 -0.36478013
0001f0 6a 46 c3 bf cc 5c 0e 3f d3 3a 8f bf c8 46 a2 3f
       -1.5255864 0.55610347 -1.1189827 1.2677851

weight f4 [128, 129]
000000 2a a7 b6 3d 90 2f 1b be 0b 89 42 3e cf ce d5 3d
       0.08918603 -0.15154862 0.1899759 0.10439836
000010 36 18 fa bd e0 13 ae 3d 3c 77 c6 bc 94 3f 40 bd
       -0.12211649 0.084998846 -0.024226777 -0.046935633
000020 3a 20 68 bd 5b 67 c1 3c 00 59 08 3c b3 08 9f bd
       -0.05667136 0.023608854 0.0083220005 -0.07765331
000030 75 62 54 bd b5 c8 da bd f9 23 40 bb 33 76 dd 3d
       -0.05185171 -0.10682813 -0.0029318316 0.1081356
000040 05 92 87 3e 39 1f 39 be dd f3 52 bd 00 82 25 3d
       0.26478592 -0.18078317 -0.051502097 0.04040718
000050 6c f1 df b9 69 7e 1b 3e 11 30 1a be 90 a4 d3 bd
       -0.00042713748 0.1518494 -0.15057398 -0.10334122
000060 55 7a b3 bd b8 55 3b be 0e 70 3f bd 76 53 c3 3c
       -0.08763567 -0.18294418 -0.046737723 0.023843508
000070 f3 9a 8d 3d 15 4b 01 bd 6c 4e 51 bd 8a ae 4b 3e
       0.0691432 -0.031565744 -0.05110018 0.198908
000080 3c 9f bb 3d 03 7c 7b bd fc 5f 85 ba b0 1e b2 bd
       0.09161231 -0.061397564 -0.00101757 -0.086972594
000090 8d 9c b9 bc e0 80 7d bd 41 7e ce 3c 2e 50 48 3d
       -0.022657657 -0.061890483 0.025206687 0.04890459
0000a0 29 30 79 3c c5 e5 a2 3d ca 2e e3 bc 74 ad 15 3e
       0.015209236 0.07953981 -0.027732272 0.14616948
0000b0 97 15 8a 3c 08 9a 49 bd 58 b9 cd 3d 76 9e 10 3e
       0.016855998 -0.04921916 0.10045117 0.14122948
0000c0 c7 66 d5 bd 10 8f d9 3d 44 83 a1 3c e7 b4 51 3e
       -0.10419994 0.1062299 0.019715913 0.20479165
0000d0 a1 27 46 3b ec fa b2 bd 3d ee 4e bd 10 ca 89 3d
       0.0030236023 -0.08739266 -0.05052017 0.067279935
0000e0 7d 87 49 3d 1f 43 53 3d 97 78 0e be 74 6f 0e 3e
       0.049201477 0.051577684 -0.13913189 0.13909703
0000f0 37 4e b7 bc a7 d8 17 3e 52 49 01 3e a4 1a 2d 3e
       -0.022376163 0.1482874 0.12625626 0.16904694
000100 5a c8 b7 bd 66 07 7e 3d 16 fa 50 bd ea b5 97 3d
       -0.08973761 0.062018774 -0.05101975 0.07407744
000110 41 8a 98 3c 35 53 83 bd 94 d6 bb bd ce 63 93 bd
       0.018620612 -0.06412355 -0.09171787 -0.071967706
000120 79 bd 1c 3e 34 a7 f7 3d 8e b3 9c 3c 68 5a b5 bc
       0.15306653 0.12092438 0.019128587 -0.022137836
000130 0e 10 a0 3d 72 88 82 be 72 87 28 bd 52 d2 de 3b
       0.07815562 -0.25494725 -0.041144796 0.0067999745
000140 bd 15 9f 3d cb 84 a3 3d f1 64 0a 3e 50 5c 08 be
       0.07767818 0.079843126 0.13515069 -0.13316464
000150 2c 6f 63 3d 4a ee 6c 3d 2d 71 26 bc d6 ef d5 bd
       0.055525944 0.057844438 -0.010158819 -0.10446136
000160 9a cd 81 bd 36 1f bb 3c 62 62 d7 3d 62 05 17 be
       -0.063380435 0.022842031 0.10516812 -0.14748147
000170 e5 96 97 3d b5 99 f7 bc a2 90 22 bd 09 84 41 bb
       0.07401828 -0.03022466 -0.039688714 -0.0029528162
000180 d1 69 54 3e c4 bd a4 3d 14 11 2b 3d 04 2e 2f 3e
       0.20743491 0.080440074 0.041764334 0.17107397
000190 be 63 cb bd 23 68 26 be 7d c5 23 bd a3 dd b2 3d
       -0.09931134 -0.16250663 -0.03998326 0.0873368
0001a0 cf f3 5e bd 25 bb 64 bd f0 3d 31 bd 76 14 af 3d
       -0.054431733 -0.055842537 -0.04327196 0.085488245
0001b0 04 62 e3 3d 95 81 8c bd ce 65 94 3e 0a 1a 61 be
       0.11102679 -0.06860653 0.2898392 -0.2198259
0001c0 25 e8 d1 3d 59 89 01 be 65 42 ab 3d 8a 02 7c 3c
       0.10249356 -0.1265005 0.08362273 0.015381465
0001d0 e6 f9 01 be 26 e8 69 bd bc dc 48 be 80 0b a1 bd
       -0.12692985 -0.05710616 -0.19615453 -0.078635216
0001e0 ab bb 00 be eb 3b e8 bc 90 42 3c be ba d7 e7 bd
       -0.1257159 -0.028348884 -0.18384767 -0.113204435
0001f0 9b c7 b3 3c 5a 30 3d 3d b6 b4 fc bc ac 65 c2 bd
       0.021945765 0.04618869 -0.030847888 -0.094920486
000200 a3 a7 b9 bd 21 11 08 3e 83 84 ef bc cd 72 e2 3c
       -0.09065177 0.13287784 -0.029237991 0.027642632
000210 f1 ff 06 be 9a e3 0f be 0a 0c 06 3d 57 fb c3 3d
       -0.13183571 -0.14051667 0.032726325 0.09569424
000220 30 7b 6b 3d c3 f5 e3 bd 51 bc 8e bd f8 43 89 3d
       0.057490528 -0.1113086 -0.06969512 0.06702417
000230 7f 3b b5 bd 89 75 57 bc 6c af 2f bd 39 45 28 bc
       -0.088492386 -0.013150581 -0.042891905 -0.01027041
000240 22 6b bf bc b5 7c c6 3d 05 b9 4f be 1f e8 70 bd
       -0.023366515 0.09691755 -0.20285423 -0.058815118
000250 42 9e f8 3d 29 8b 5f bd bf 02 90 3c fe b6 de 3c
       0.1213956 -0.054576073 0.017579434 0.027186867
000260 cc 97 37 3e 69 aa bd bd 41 9b e0 bd a8 1b 38 3e
       0.17929 -0.09261019 -0.10967112 0.179793
000270 ab 17 a8 bc 45 64 40 3d 19 a7 6a 3d 65 30 33 bd
       -0.020519098 0.046970624 0.057288263 -0.043747324
000280 01 e9 e8 3c 8b 02 7d 3d 33 49 59 bc 86 74 49 3b
       0.028431417 0.061770003 -0.013262081 0.003073962
000290 49 fd 19 bd 81 c6 04 bd a9 45 69 3e 93 d3 c2 3d
       -0.037595067 -0.03241587 0.2278048 0.09513011
0002a0 67 28 fd 3d 79 fc 22 3e 28 62 ba bd 15 c8 3e be
       0.12361222 0.15916623 -0.09100753 -0.18631013
0002b0 2a 58 66 bd a5 48 9d 3d f2 1d 90 be 5e 5f 9a 3d
       -0.056236424 0.076798715 -0.28147846 0.07537721
0002c0 a9 8b 1d 3d 51 c5 c2 bc 49 c7 f9 bd e7 73 97 bc
       0.03846327 -0.023775728 -0.12196214 -0.018487884
0002d0 06 f1 ec bd 53 a4 b1 3d 54 f9 13 3e 33 53 01 be
       -0.11569409 0.086739205 0.1445058 -0.12629394
0002e0 f5 21 6c 3c c5 c6 f6 ba df 7b 93 bd d8 fb 7b 3e
       0.014412393 -0.0018827548 -0.07201361 0.2460779
0002f0 9b f3 45 bc ef ed e7 3d b5 13 1b 3e c5 b6 9b bd
       -0.012082006 0.11324679 0.15144236 -0.0760322
000300 34 5b 5d 3d 3a cc cf bd dc 02 34 bd 81 58 f7 3d
       0.054042056 -0.10146375 -0.04394804 0.12077428
000310 1e 60 ad bd bd 8e f7 3d 7d 88 93 3e b9 70 a9 bd
       -0.084655985 0.12087772 0.2881507 -0.08273453
000320 55 6d 5a 3e 65 20 21 3d 85 3e 5b be 22 ca 7a 3d
       0.2133077 0.039337534 -0.21410568 0.061227925
000330 e0 c5 ce 3b 63 ac bf 3c 3b 7c 1e be 20 32 3f 3d
       0.0063102096 0.02339763 -0.15477078 0.046678662
000340 44 8f 0e 3d b5 11 93 3c 5c ce 2b be ab d6 34 be
       0.034804597 0.01795278 -0.16777939 -0.17660014
000350 93 9d 8b be 26 68 d1 bd cd fb 8f bd ac ad 6e bd
       -0.27268657 -0.10224943 -0.07030449 -0.058271095
000360 ac c7 47 be 64 d0 19 3e 08 c2 b9 bc cd 94 e0 bd
       -0.19509763 0.15020901 -0.02267553 -0.109658815
000370 bc 99 e5 bd 4c ec d5 bc 99 15 21 bd e6 79 b4 bc
       -0.11210963 -0.026113652 -0.039327238 -0.022030782
000380 ff 5a 42 be 1d d3 ee bc f0 62 8d 3d 4f 34 12 bd
       -0.18980025 -0.029153401 0.069036365 -0.035694417
000390 14 8c 18 3e 2a 7d 0d 3e f3 53 7f bd 9c 26 d7 3d
       0.14897186 0.13817278 -0.06233592 0.10505411
0003a0 cb 6f 21 3d 49 7d ea bd 61 83 05 3e 5f e0 d2 3d
       0.039413255 -0.114496775 0.13038398 0.10296702
0003b0 e4 48 a7 bc 5f 20 4e bd 4d 76 ae bd 17 fd 80 bd
       -0.0204205 -0.05032384 -0.08518658 -0.06298273
0003c0 29 82 2c bd fc fe b5 3a 94 35 db bd 21 9b 8a bd
       -0.042116318 0.0013885195 -0.107035786 -0.0676787
0003d0 51 d0 96 3d 07 a7 f3 bd 9a 48 91 bc 8a 31 19 be
       0.07363952 -0.11897092 -0.017734814 -0.14960304
0003e0 77 cb 07 be 6e be 0b 3e e7 dd 33 be 80 9f 1d 3c
       -0.1326121 0.13646862 -0.17565118 0.009620547
0003f0 59 dd 87 3c 8d aa 68 bd fb bd 2d be 4d 39 0f be
       0.016585039 -0.056803275 -0.16967003 -0.13986702

bias f4 [128]
000000 27 ef 24 be 4e 47 7c be cd c8 38 be 21 1c c2 bc
       -0.16106854 -0.24636576 -0.1804535 -0.023695054
000010 b3 6b 90 3c 50 d8 95 bd 4c d5 2b be fd 5d 75 3d
       0.01762948 -0.07316649 -0.16780585 0.059904087
000020 eb 7e ba 3d 0a ec 34 bd 1a 81 e0 bd ff f6 12 be
       0.09106239 -0.044170417 -0.10962124 -0.14352034
000030 a0 6b a0 bd 4d 89 2d bd 70 58 8e 3b e5 65 2a be
       -0.07833028 -0.04236727 0.0043440387 -0.16640432
000040 27 c9 21 bd fb 59 19 bc dd 4a bc bd d3 a3 88 3d
       -0.039498474 -0.009359832 -0.091939665 0.06671872
000050 ba 21 4f 3c 8b 04 80 be 02 fc ba 3d 95 34 da bd
       0.012642318 -0.25003466 0.09130098 -0.106545605
000060 e3 93 24 3e fa 59 04 bd b1 39 e1 3d 40 1d 0f bc
       0.1607204 -0.03231237 0.10997332 -0.008735001
000070 cd 18 5b 3d 15 4e 16 bb 45 58 ed 3c ad 49 39 bd
       0.05349045 -0.0022934724 0.028972754 -0.04523628
000080 1d 6a e3 bd 02 4c c8 3d 97 0e 5c bd 1f f8 58 bd
       -0.11104224 0.09780122 -0.05372485 -0.052971
000090 72 e8 eb bc 6b 31 14 3e 37 e7 e1 3d 63 cc 34 3e
       -0.028797362 0.14471976 0.11030429 0.17656092
0000a0 61 36 4f 3c 5c f6 2b be e5 4f a3 bd b2 74 1c 3c
       0.012647242 -0.16793197 -0.07974223 0.009549307
0000b0 d3 7b 41 3c d8 64 e3 3d 1a b9 50 be 24 5a a4 3d
       0.011809307 0.11103219 -0.2038311 0.080250055
0000c0 fe f4 19 be 8a 10 e0 3d 58 ae b3 3d b5 44 66 be
       -0.15034863 0.109406546 0.08773488 -0.22487147
0000d0 5a a8 41 be 06 5d a2 bd 9c 6e 32 be dd aa 12 3e
       -0.18911877 -0.07927899 -0.17425007 0.14322992
0000e0 9e f6 0a 3e 90 36 e6 bb 4f 80 48 bd 36 a2 0f bd
       0.1357064 -0.0070255473 -0.04895049 -0.035066806
0000f0 75 f1 e9 bc d2 9a 08 3e a4 31 04 be 08 50 ea bc
       -0.028557518 0.1334031 -0.12909561 -0.028602615
000100 2a 92 be bd 70 ff eb 3d 41 1b 8c bd 1a 9b 05 bd
       -0.09305222 0.1152333 -0.06841136 -0.03261862
000110 fc ad a7 bd 20 ec 7f 3d fc eb ea bd e1 8b 7b 3d
       -0.08187482 0.062481046 -0.11470792 0.061412696
000120 0f 7e 63 bd 8d 0b 94 3d 79 eb 9d bd 75 8b c6 3d
       -0.05554014 0.07228766 -0.077109285 0.09694568
000130 78 ac 87 3c 0a eb 51 bd 01 c4 a1 3b c4 05 98 3e
       0.016561732 -0.05124954 0.0049366956 0.296919
000140 52 3f 5a 3d bb 57 c9 3c 91 13 a3 bb 1b c5 93 bd
       0.053283043 0.024577966 -0.0049766977 -0.07215329
000150 5c 6b f5 3c 15 7b c2 3d 17 3c ea 3d 94 1a 87 be
       0.02995842 0.09496132 0.114372425 -0.26387465
000160 4a 18 8a bc 51 9c 12 3e a5 aa b7 bc fa 9f 9b bd
       -0.016857285 0.14317442 -0.022420237 -0.075988725
000170 e8 43 e8 3b 94 01 fa bd 8e 56 1e be ec 95 24 3e
       0.007088173 -0.12207332 -0.15462705 0.16072816
000180 77 2d 5f bc a1 d1 a8 3c 3a d8 d6 3c 9f 87 10 3e
       -0.0136216795 0.020607771 0.026226152 0.14114235
000190 e3 8b 2e bd 66 06 86 3d 20 c6 a2 bd 45 28 9f bc
       -0.042613875 0.06544189 -0.079479456 -0.019428382
0001a0 d0 b4 81 bd d3 ee b1 3d 98 af 68 3d 46 ef 60 bd
       -0.06333315 0.0868813 0.056808084 -0.05491569
0001b0 ef 62 71 bd be 98 9b bd 26 47 7f bd de c1 27 ba
       -0.05893224 -0.07597493 -0.06232371 -0.0006399433
0001c0 61 23 c7 bc b0 1c f3 3b 99 94 c9 3d 91 fa c2 bd
       -0.024308862 0.0074191913 0.09842796 -0.09520448
0001d0 03 a8 8c bb bf b2 19 3d 74 57 60 bd 9f 31 60 3d
       -0.0042924895 0.03752398 -0.0547709 0.054734822
0001e0 7c 07 61 bd ca e0 14 bd 44 61 62 3e 3b ba 08 be
       -0.05493878 -0.036347188 0.22107416 -0.13352291
0001f0 7e 9f ce bd 5e 3a 34 bd 5d 7b a9 3d 1a cf df 3d
       -0.100890145 -0.044000976 0.08275483 0.10928173

weight f4 [128, 129]
000000 04 05 ae bd 96 db bd bd 37 c3 07 be 7a 9e 57 3d
       -0.084970504 -0.09270398 -0.13258062 0.05264137
000010 1a 23 79 bd 61 65 82 3d 57 a8 55 bd 4c a5 97 3d
       -0.06082449 0.06366993 -0.052162495 0.07404575
000020 ae 8c a0 bd 9f c6 42 3e 02 2d e2 3d 9d ae 83 3c
       -0.078393325 0.1902108 0.11043741 0.016074473
000030 e0 dc ad bd bd ba 76 3e d9 dc 16 be 45 0e 53 3e
       -0.08489394 0.24094673 -0.14732684 0.20610912
000040 19 ca 35 be e9 4c 46 3b fb 4d 89 bd 16 65 4b bd
       -0.17752875 0.0030258244 -0.06704327 -0.04965695
000050 b7 1e 82 bc 4c 72 3b 3d 7a db 16 be 64 39 3a 3d
       -0.015883787 0.0457633 -0.14732161 0.04546489
000060 f9 ae 2b bd da a7 c2 bd b1 5d 52 be ab ca 2e 3e
       -0.041914914 -0.095046714 -0.20543553 0.17069499
000070 4c bd 64 bc 40 bf 82 3d d1 09 e6 bc d1 3d ab bd
       -0.0139611475 0.06384134 -0.028080853 -0.083614
000080 87 59 49 3d c4 a6 23 3e 61 17 62 bd 97 0f d1 3d
       0.049157646 0.15981585 -0.055198077 0.10208052
000090 83 cd dd 3c 15 c7 98 bd 61 14 f0 3d 09 37 95 bd
       0.027075535 -0.07459847 0.11722637 -0.07285888
0000a0 f8 e2 d3 3c 6e 08 1c be 1e 71 12 be 39 06 0c be
       0.025865063 -0.1523759 -0.14300963 -0.13674249
0000b0 cb 8a 46 3d da 6c a8 3d 9e e2 88 3c 33 d2 3d 3d
       0.048472207 0.08223887 0.016709622 0.04634304
0000c0 b1 34 bc 3c 04 5d 4a bd 95 78 02 ba 5e 20 94 bb
       0.022974344 -0.049405113 -0.00049770746 -0.00452046
0000d0 95 ba 0d bc 1e 7e 34 bd f2 80 03 3e 78 8f 42 3d
       -0.008650442 -0.044065587 0.12842157 0.047500104
0000e0 9b 2d c3 3c ad dd 8e 3b fc 9a e1 bd 1b a7 6d 3d
       0.023825457 0.004359922 -0.11015889 0.058020692
0000f0 cd 5d 82 3d 5d d6 0a bd 4e db d6 bd f3 d3 a0 bd
       0.06365547 -0.03389584 -0.10491048 -0.07852926
000100 8e 53 ab bd c7 11 1f 3d d1 72 1e be 93 bd 06 bd
       -0.08365546 0.038835313 -0.15473486 -0.032895636
000110 92 93 a6 3d fb 00 05 3e 8c c5 9d bd 54 fd 3d 3e
       0.081336156 0.12988655 -0.07703695 0.18553668
000120 1f 15 2e ba cb 12 ce bc 88 6d 40 be b4 11 87 3d
       -0.00066407205 -0.025155446 -0.18791783 0.065951735
000130 78 b1 91 3d 7a a7 81 3d 59 03 78 3b 8b fc 2f bd
       0.071139276 0.06330772 0.0037843792 -0.042965453
000140 75 b2 82 bd d2 e4 e0 3d 6c 9b f2 bd 75 a5 ec 3d
       -0.06381694 0.10981144 -0.118460506 0.11554996
000150 cd e1 ac bd a5 55 f8 3d 1e e0 bb 3d be 87 bb 3d
       -0.084415056 0.121257104 0.09173606 0.0915675
000160 59 dc 0c 3c d6 2c 8b 3d 9b e3 9d bd 3c 73 38 3b
       0.008597457 0.06795661 -0.07709428 0.0028144857
000170 3f 82 99 bd 9f 60 20 3d 5a 78 8d 3d 65 33 0c bc
       -0.074955456 0.039154645 0.06907721 -0.008557175
000180 ab 87 e4 3c a6 8f 5c 3c f6 7a 16 3d 96 9a 0d 3d
       0.027896723 0.013461983 0.03673836 0.034571253
000190 8e 2d c7 3d f4 20 d4 bd 9a 9a 6c bd 31 78 8c bd
       0.09725486 -0.10357848 -0.057764627 -0.06858862
0001a0 cd 78 b2 3d 6d c0 8b 3d d5 8b f0 bd 95 03 9f 3d
       0.08714447 0.06823812 -0.11745421 0.07764355
0001b0 cf 8a d8 bc ef 14 64 3d 2a 89 ca 3d 09 d2 5d 3b
       -0.026433377 0.055684026 0.09889443 0.0033847115
0001c0 0c 59 98 3c 2a c7 8e be 35 33 af 3d 46 2c 44 3e
       0.018597148 -0.27886325 0.08554689 0.19157514
0001d0 a3 de 02 be 3e b7 2c 3d c4 5f 05 3e 52 fb 92 3b
       -0.12780242 0.04216694 0.13024813 0.004485526
0001e0 e4 a1 c0 3d d0 4a 34 bd 17 3b 89 3d fa a8 7e 3c
       0.09405878 -0.04401666 0.067007236 0.015543217
0001f0 ab bb 41 3c d0 a5 08 be dc 40 03 be 85 9e 9e be
       0.011824529 -0.13344502 -0.1281771 -0.30980316
000200 96 f6 08 3d a8 3e 41 bd 0e 3f 03 bd 9c c1 d9 3c
       0.033438288 -0.047178894 -0.032042556 0.026581578
000210 f0 37 c7 3d c9 09 98 bd b8 71 13 bd 11 38 59 3b
       0.09727466 -0.07423741 -0.035997123 0.003314499
000220 35 cd 03 bd 1a 7c 8b bd 5e 93 ef 3b a6 11 5c bd
       -0.032178123 -0.0681078 0.0073112687 -0.05372777
000230 ca 96 c6 3c 23 14 83 bd 4a c1 d3 bd 35 0e fb bb
       0.024241824 -0.06400325 -0.10339601 -0.0076616057
000240 5a 0d f0 3d 42 36 54 3e 54 a4 81 bd a3 dd 95 bc
       0.117212966 0.20723823 -0.06330171 -0.018294161
000250 e7 95 66 3d e9 b9 05 3d aa 7c 1e bd dd 07 0c 3e
       0.0562953 0.032648 -0.038693108 0.13674875
000260 24 98 70 3e fb 9e 90 3c c4 5c b7 bd 0a 89 d1 3d
       0.23495537 0.017653933 -0.089532405 0.10231216
000270 52 f6 8c bd 11 89 3d bd d6 65 31 bd b2 39 ca bd
       -0.06882919 -0.046273295 -0.04331001 -0.09874286
000280 93 58 0f be 91 46 f8 bd cf 56 21 bd 7c 45 0d bd
       -0.13998632 -0.121228345 -0.039389428 -0.034490094
000290 45 6d 93 3d 5a 33 36 be 40 e7 06 3e f6 cc 50 3d
       0.07198576 -0.17793027 0.13174152 0.050976716
0002a0 de 34 c5 bd 84 54 d3 bd 7e 89 18 3d e0 60 79 3d
       -0.09629224 -0.103188545 0.037240498 0.060883403
0002b0 ab 9d 49 bd dc ba 33 bd 71 77 54 3b b8 ad 86 bd
       -0.04922263 -0.043879375 0.0032419825 -0.06576103
0002c0 28 8e 33 3b 7d 19 0d be ba e4 c0 3d e4 ed 07 be
       0.0027397964 -0.13779254 0.09418626 -0.13274342
0002d0 85 25 e1 bd 0e cf 22 3d b3 c3 0a be 55 ce 54 bc
       -0.109934844 0.039748244 -0.13551216 -0.0129886465
0002e0 6a dc 23 bd 93 08 e5 3d 07 5f dd 3c cb cf 10 3d
       -0.040005125 0.11183276 0.027022852 0.035354417
0002f0 24 3a 06 3e a4 c7 c9 bd 6a 0c 4a 3c 88 5c 43 be
       0.13108116 -0.098525316 0.012332061 -0.19078267
000300 c4 24 08 3e 49 a8 13 3e a1 f5 8e 3d 81 7c a0 bc
       0.13295275 0.14419664 0.06980444 -0.019590618
000310 c4 e2 c1 bd c8 53 8c bd d2 72 0a 3e b8 c8 77 3d
       -0.0946708 -0.068519175 0.13520363 0.060494155
000320 7f 35 0f 3e 94 0d 44 3d 56 96 b0 bc a4 9f 92 be
       0.13985251 0.04786451 -0.02155606 -0.2863742
000330 42 37 63 bd fe 0d 97 bd c9 68 40 3d 79 7f 8b 3d
       -0.05547262 -0.07375716 0.04697493 0.06811423
000340 b4 be 50 bd 37 32 60 3e 9b 05 47 3e 9a c7 a5 bd
       -0.05096312 0.21894155 0.19435732 -0.080947116
000350 78 84 8f bb fd d8 81 3d 59 32 24 be 3c 2a 52 bd
       -0.004379805 0.06340215 -0.16034831 -0.05130981
000360 f2 41 37 3e dd 11 b0 bd 5b b9 5a bc ba 8f b1 3c
       0.1789625 -0.08597157 -0.013349856 0.02167498
000370 0a 5d 6b 3d 9c 8a 7d 3d 59 73 55 be f8 db 12 bd
       0.057461776 0.061899766 -0.20844783 -0.03585431
000380 70 7e 7c bd 17 a7 8f bd 1a bc bf 3d 48 79 8e 3d
       -0.061644018 -0.07014292 0.093620494 0.06956726
000390 26 00 d8 3b 49 c9 b5 3d 6d b7 ef 3c c1 59 a9 bd
       0.0065918146 0.08876283 0.029262269 -0.08269072
0003a0 c1 47 31 bd 7f fa 53 bd 69 d0 07 be 1c ab 05 bd
       -0.04328132 -0.051752564 -0.13263096 -0.032633886
0003b0 7d b3 e1 bd 38 3a ea 3d 5f bb ca 3c bb 0f a9 3d
       -0.11020563 0.114368856 0.024747549 0.082549535
0003c0 7d 87 67 3d 19 64 fd 3d 36 c6 1f bd 47 bd 52 3e
       0.056525696 0.12372608 -0.039007388 0.20580016
0003d0 c0 13 99 3c 83 30 b9 3d d6 ea 16 3d 6a 9d 72 3c
       0.018686175 0.09042456 0.03684505 0.014808038
0003e0 e7 77 f2 3d 09 50 98 3c ed 92 d5 bd 5b df 1a 3d
       0.11839276 0.018592851 -0.104284145 0.037810665
0003f0 af 55 5c 3d b3 67 66 3d fa 0c dd bd 34 cd 9c bd
       0.05379265 0.05625124 -0.10793491 -0.07656327

bias f4 [128]
000000 cc cb 89 3d ed c7 64 3d d5 5c e2 3b c5 8b eb bd
       0.06728324 0.055854727 0.006908039 -0.11501268
000010 bd fb cb bd e2 f0 c2 bd 25 ec 03 bc ba 35 80 3c
       -0.09960125 -0.09518601 -0.008051907 0.015650619
000020 75 55 0a 3e 2b 81 26 be fb d2 99 3d ba 44 cb bd
       0.13509162 -0.16260211 0.075109445 -0.09925218
000030 da 11 c1 bd 42 e8 80 bd ba d5 9a 3d fc ba 93 bd
       -0.09427233 -0.062943 0.07560296 -0.07213399
000040 1b d0 bc 3d d8 59 15 be 4a ed 79 3d 97 09 11 bc
       0.092193805 -0.14585054 0.061017312 -0.008852384
000050 da 51 b5 bc cf ec 91 bc 60 21 0a be 0b 13 44 3e
       -0.022133756 -0.017813114 -0.13489294 0.1914789
000060 eb 54 45 be d1 6d b8 3d 69 ce 16 3e 21 8a 7b 3c
       -0.19270675 0.09005321 0.14727177 0.015352757
000070 71 fe b4 bd 4e ba b9 bd 8e ee 1a 3e d6 f5 10 3c
       -0.08837593 -0.09068738 0.15130064 0.008847674
000080 92 3b c5 bd ac f9 8d 3c b6 70 13 3d f8 76 e5 bc
       -0.09630503 0.017330967 0.03599616 -0.02801083
000090 10 b9 20 be 37 f6 8d 3d 96 47 ec 3d d6 54 39 bd
       -0.15695596 0.069317274 0.115370914 -0.04524692
0000a0 0c de c7 3d c9 c6 43 be 34 01 4a be 4a e1 b4 bd
       0.09759149 -0.191188 -0.19727021 -0.08832033
0000b0 cb d9 81 3e 02 57 4c bc e1 df 3f 3d f7 77 07 bc
       0.25361475 -0.012471916 0.046844367 -0.008268348
0000c0 4b 05 2a be 36 4e c2 bd 98 e0 9c 3d c0 78 17 3c
       -0.16603582 -0.09487574 0.07660025 0.009245098
0000d0 de b5 b7 3d d8 11 ce bd 94 69 22 3e 3c f7 0c bd
       0.08970235 -0.10061997 0.15860587 -0.03441547
0000e0 97 fd 82 3d ce c0 05 3d 75 d2 f6 bc bf 4c 65 3b
       0.06396025 0.032654576 -0.03012965 0.0034988371
0000f0 bf b2 34 bd a8 bc 90 bd 77 67 ea 3d b1 e5 5d bd
       -0.044115778 -0.07067233 0.114455156 -0.05417413
000100 24 f7 69 bd b4 89 5e 3d a6 87 80 3d 67 68 24 3e
       -0.057120457 0.054330543 0.06275873 0.16055451
000110 0f 2b c9 bc 9c 1d f5 3d 40 21 46 be 64 47 2c be
       -0.024556665 0.11968538 -0.19348621 -0.16824108
000120 98 e1 74 3d a9 97 2a bc 65 3d 45 bd 62 8c cd bd
       0.059785455 -0.010412135 -0.048154254 -0.100365415
000130 fb 76 b6 3d d1 a7 46 bd af 9d 64 be da 34 b7 3c
       0.089094125 -0.048499886 -0.22325777 0.022364069
000140 73 f5 2d bd 04 6c 21 3e f5 76 3e 3b cc af ff bd
       -0.042470407 0.15763861 0.0029062603 -0.124847025
000150 a2 c4 8b 3d fe 60 fd bd 32 f6 c5 bd b3 85 f2 3c
       0.06824614 -0.123720154 -0.09666099 0.029604768
000160 ed 81 c2 bc ed 8d 30 bd 50 cd 1d be 1a 35 94 bd
       -0.023743594 -0.0431041 -0.15410352 -0.07236691
000170 1c 51 b4 bd 37 fa 78 bd 69 44 f2 3c 5c f5 21 3e
       -0.08804533 -0.0607855 0.029573636 0.15816253
000180 0a 0f a3 3d 3d 4c dd 3c e9 5f 01 3d c6 ba 26 3e
       0.07961853 0.027013892 0.031585608 0.16282186
000190 e5 d8 ca bd ee b7 b9 3d 4c 2c 3b 3d 78 86 c5 bc
       -0.099046506 0.09068285 0.04569654 -0.024111971
0001a0 46 59 5a 3e b3 31 af 3d 53 bc 5d 3e 58 67 a3 bd
       0.21323118 0.08554401 0.21653871 -0.07978696
0001b0 0d 87 f1 3a d3 cd 05 3c 88 e9 9e 3d 2c c2 ea 3d
       0.0018427089 0.008166748 0.07759386 0.114628166
0001c0 bc e3 a0 bc 3d 92 5d bd cb 53 ed 3d b4 ab c6 bd
       -0.019639842 -0.05409454 0.11588248 -0.097007185
0001d0 a5 db 79 bd 5c 37 99 bb a8 91 e0 3b a6 1a f0 3c
       -0.061000485 -0.004675789 0.006853301 0.029309582
0001e0 9a 7a 42 bd a9 d3 82 3c 03 65 15 3d c0 f8 00 3d
       -0.047480203 0.015970068 0.036473285 0.031487226
0001f0 10 2f 4f 3d 44 ef 95 bd 57 4b ea bd a8 08 b2 bd
       0.05058199 -0.07321027 -0.11440151 -0.08693057

weight f4 [128, 129]
000000 ef ad a1 3c d2 e5 22 be 6e 15 18 be c3 ec a5 bb
       0.019736258 -0.15907982 -0.14851925 -0.0050636246
000010 68 fb 07 3e 0a 80 d8 3c 30 a7 b1 3d 81 95 1d 3d
       0.13279498 0.026428241 0.086744666 0.038472656
000020 68 0e 46 3e 56 99 89 3d ee 38 dc bc 33 83 1e bd
       0.19341433 0.067187 -0.026882615 -0.03869934
000030 9a 42 a3 bd 04 56 82 3d 52 f2 90 3b 1f e1 a5 3d
       -0.079716876 0.063640624 0.004423418 0.08099579
000040 15 f0 36 3e 04 2b 49 bc 96 9b 86 bd 44 a8 07 3e
       0.17865022 -0.012278322 -0.065726444 0.13247782
000050 8e 2e aa 3d 97 00 97 3d bc cf 01 bc 17 1e 39 3d
       0.08309661 0.073731594 -0.007923063 0.04519471
000060 63 74 46 bd 3f 38 2c 3d 34 9e 39 3d 71 58 36 3e
       -0.04845084 0.042045828 0.04531689 0.17807175
000070 d5 6d 4a bd d1 b0 0e be 07 1c c5 bd 56 2c fa bd
       -0.04942115 -0.13934638 -0.096244864 -0.12215488
000080 45 f8 87 3d 3d 55 f7 3d 01 0a 9a 3b ce aa f3 3c
       0.066391505 0.12076805 0.0047008996 0.029744532
000090 28 d6 29 be 27 8a d2 3d 42 d9 35 3d 4a 2a ea 3c
       -0.165856 0.10280257 0.044396646 0.028584618
0000a0 e6 e5 01 3d c7 ed 62 bd 36 45 ca 3d b3 43 29 3d
       0.03171339 -0.055402543 0.09876482 0.04132433
0000b0 1e 5c a7 bd 0c 46 b8 bd 1a 1d f2 bb 02 61 3c 3c
       -0.08171867 -0.089977354 -0.007388723 0.011497738
0000c0 16 2d 83 3d 1f be a5 bc 8b 03 16 3c 1d d9 8c 3d
       0.06405084 -0.020232258 0.009156118 0.068773486
0000d0 0a 8a fe 3d a4 33 fb 3c c5 29 ad 3d 75 01 13 bd
       0.124286726 0.030664273 0.084552325 -0.03589006
0000e0 4e 48 10 bd bc e5 4c be 38 44 e4 3d d6 6e 51 3e
       -0.035225205 -0.20009512 0.11145824 0.20452437
0000f0 ee 10 7b bb f4 f7 03 be b2 c2 4e 3d 2d 26 14 3e
       -0.0038309651 -0.12887555 0.050478645 0.14467688
000100 14 97 b6 ba e2 5c d7 3d 5d dc 2b 3d 95 ee 8c 3d
       -0.0013930523 0.10515763 0.0419582 0.068814434
000110 7f ea a1 3d 52 90 e1 3d a5 f9 41 be c2 e7 3a 3d
       0.07906055 0.11013855 -0.18942888 0.045631178
000120 b8 9f 7a bd c7 63 9c 3d f7 96 3c bd 6c f8 2d 3d
       -0.061187476 0.076362185 -0.04604241 0.04247324
000130 f8 47 0f be 62 c1 ce bd f6 47 00 3e 29 f0 95 bd
       -0.13992298 -0.100954786 0.12527451 -0.073211975
000140 a8 79 93 bd 1a a5 1e bd de 9e ba 3d 8c 8b 65 3d
       -0.072009385 -0.038731672 0.09112333 0.056041285
000150 58 87 38 3e 8b 46 e2 3d c6 21 3f 3e 8a 93 69 bd
       0.1802038 0.11048611 0.18665227 -0.05702547
000160 7f 68 80 bd 38 f6 de bc e5 60 a0 3d 65 09 95 3d
       -0.06269931 -0.027217016 0.07830981 0.072771825
000170 05 d2 ab bd 43 a9 a6 bd c0 9e 3f bd 9b ea ee 3d
       -0.083896674 -0.08137753 -0.046782255 0.11665841
000180 b6 c8 da 3d a5 6e dc 3d 9a 6a bf bc 82 31 9c 3c
       0.10682814 0.10763291 -0.023366261 0.019066576
000190 91 27 09 bd 06 2a 01 3e fc b0 33 bc 31 a0 09 be
       -0.033485 0.12613687 -0.010967489 -0.13440014
0001a0 57 b5 8a 3d 98 8e d1 bd d9 e7 c3 3d 6e 7a 26 3d
       0.06772869 -0.10232276 0.09565706 0.0406441
0001b0 17 2b 00 be 21 a6 99 bd ac 0b f9 3c b6 6a 77 be
       -0.12516437 -0.0750239 0.030401073 -0.241618
0001c0 d5 b3 f1 3c 5b 35 9a bd b6 2f 2f bd d8 1f 23 3c
       0.029504696 -0.07529708 -0.04277011 0.009956323
0001d0 79 6d e8 bc 1e 7d 1c 3d b7 7f 37 3d b8 44 45 be
       -0.028372513 0.03820526 0.044799533 -0.19264495
0001e0 3b 10 af 3b 48 18 46 bb 7f 12 97 bd ef b1 17 3e
       0.005342511 -0.0030226875 -0.07376575 0.1481397
0001f0 86 c4 18 3c b8 32 85 3c 5c 5a 25 3e d5 71 89 bd
       0.009324199 0.016259536 0.1614775 -0.06711165
000200 9e 83 86 bd 04 56 c7 bd 07 33 0c 3e 69 98 92 bd
       -0.06568073 -0.09733203 0.1369134 -0.07157976
000210 59 55 a7 bd 8e cb d7 bc 80 a3 81 b6 1c 89 0a 3e
       -0.08170576 -0.02634218 -3.8635335e-06 0.13528866
000220 b7 cc ba bc 4d aa 81 3d 05 01 91 bc 10 ac d6 3d
       -0.022802694 0.063313104 -0.017700681 0.10482037
000230 75 a0 f7 bd c8 4f 08 3e d0 34 4e 3d 18 6d 03 3e
       -0.120911516 0.13311684 0.050343335 0.12834585
000240 64 cd 15 3e 0c d2 b0 3d 6d 2a 2e 3e 04 db d3 3c
       0.14629132 0.08633813 0.17008372 0.02586127
000250 6e 3d 27 3d 9c 5a 8b 3c 53 3f 11 bd cf 0f 8d bb
       0.04083007 0.01701098 -0.03546078 -0.004304863
000260 94 07 8d bd 73 19 2f be 9b ae 26 bd 4f 6b 73 bd
       -0.06886211 -0.17099552 -0.04069386 -0.05942851
000270 24 4c 14 3d 2a 26 0e 3d 01 e6 bb bc 32 0b 12 3d
       0.036205426 0.034704365 -0.022936823 0.035655208
000280 5a 3a 76 bd 82 24 3d 3e bc 5b 4a 3d f5 1f 2d 3d
       -0.060114242 0.18470958 0.04940389 0.042266805
000290 75 65 d1 3d 87 8f 4d bd 43 e3 43 bd 90 34 b6 3d
       0.102244295 -0.050185706 -0.047824156 0.08896744
0002a0 09 73 29 bd b5 b0 cb bd df 42 86 3d 23 27 bc 3b
       -0.04136947 -0.099458136 0.065557234 0.00574197
0002b0 67 f5 3e 3c d2 7f 07 3c 0a df 77 bd 86 6d d4 bd
       0.011655188 0.008270221 -0.06051544 -0.103724524
0002c0 1e f1 77 bd d1 91 3f be da 16 0e be 70 e6 4b bd
       -0.06053268 -0.18707968 -0.13875905 -0.04978031
0002d0 71 70 84 3d d3 34 46 3c 12 57 56 be 6a b3 4a 3e
       0.06466759 0.012097555 -0.20931652 0.19795004
0002e0 77 ba 65 be a8 06 8b bd ea 2d 00 be d0 b7 a4 3d
       -0.22434412 -0.06788379 -0.12517515 0.08042872
0002f0 28 7d 44 ba b7 8b 68 3d 60 bb 74 3c 0e 58 8f bd
       -0.00074954564 0.056773867 0.014937252 -0.06999217
000300 b5 36 3d 3d a2 f1 4b 3e d0 42 1f be a9 f9 19 be
       0.04619475 0.19916394 -0.1555283 -0.15036644
000310 e4 c5 91 3d c1 fb eb bc d6 f9 0f 3e 2f 9a 8e 3d
       0.07117823 -0.028806569 0.14060149 0.06963002
000320 bf 30 16 be b8 70 28 bc 1d 33 e7 bc 64 7f a6 3d
       -0.14667033 -0.0102807805 -0.028222615 0.081297666
000330 6f e3 14 bd f1 5d 3e bd 83 bd e7 3d 4d 54 46 bd
       -0.03634971 -0.04647631 0.11315443 -0.04842024
000340 79 fd 64 3d 5d b9 ee bd 2b 54 03 3c eb d3 af bc
       0.055905793 -0.11656449 0.008015673 -0.021463355
000350 62 28 12 bd 88 07 c4 bc 5d cc 43 3e 76 e8 1f be
       -0.035683043 -0.023929372 0.19120927 -0.1561602
000360 10 bb 82 bc 7d 8c 58 bc 36 fc 73 be 87 53 24 be
       -0.015958339 -0.013217089 -0.2382668 -0.16047488
000370 98 ce 1f 3b 97 eb 13 3e c1 0d 14 3c b2 d7 a9 bd
       0.0024384614 0.14445339 0.009036482 -0.08293094
000380 e0 92 39 3e 6d f3 2e be 95 7d c7 3d 4f 3a 93 bd
       0.18122435 -0.17085047 0.0974075 -0.07188856
000390 31 bd 4a 3d 18 f5 e0 bd 85 56 c4 3d a0 2d 03 be
       0.049496833 -0.10984248 0.09586815 -0.12810373
0003a0 ca 92 76 3e 53 d6 b2 3d ec 85 dc bd 1a 03 af 3d
       0.24079433 0.08732285 -0.10767731 0.085455135
0003b0 91 42 f3 3d 8f dd aa bd 3c f2 d0 bd d8 0b 92 3d
       0.11877931 -0.0834304 -0.102024525 0.07131165
0003c0 20 72 71 bc 89 53 00 be 50 5f e5 3c e9 e0 69 3e
       -0.014736682 -0.12531866 0.02799955 0.22839703
0003d0 5b 76 ef 3c eb 62 77 3e 7b dc 34 be 64 49 9b bd
       0.029231241 0.24158828 -0.17662232 -0.075823575
0003e0 c9 44 3f 3c 70 02 a1 3d ed e1 39 3d db 20 d1 bd
       0.0116741145 0.07861793 0.045381475 -0.10211345
0003f0 c3 1e a4 3c 69 3e f5 bd 76 33 2f be b0 53 44 3d
       0.0200342 -0.119747944 -0.17109475 0.047931373

bias f4 [128]
000000 df 90 82 3c 7e 55 eb bc 2d f5 79 bc 96 78 bd 3d
       0.01593822 -0.02872729 -0.015256208 0.092515156
000010 97 d1 7f bd e3 8b 16 3d 2c a5 39 bd 4e 63 67 bd
       -0.06245574 0.0367545 -0.045323536 -0.05649119
000020 58 4b c7 bd 3a 26 09 3e c7 5d f0 3c 0a a7 8b 3c
       -0.097311676 0.13393489 0.029341592 0.017047424
000030 ad d0 9c 3d d7 ca 0d be be 14 04 be 78 21 0a 3e
       0.07656989 -0.13846909 -0.12898538 0.1348933
000040 66 8a 58 be 25 62 01 bd 93 4b 0a 3e e6 a9 1c be
       -0.21146545 -0.03158774 0.13505392 -0.15299186
000050 07 60 8e bd 85 8c 1f be 1c d5 09 3e d0 22 28 3d
       -0.069519095 -0.15580948 0.13460201 0.041048825
000060 b1 cb f8 3c 5d 42 f0 bc c1 33 ba bd ea ab bb bd
       0.030370565 -0.02932852 -0.090919025 -0.091636494
000070 30 e1 95 be 85 c4 07 3e ff db 33 3e 30 c6 f7 bd
       -0.29273367 0.1325856 0.1756439 -0.12098348
000080 02 e7 4b bd 9f ad 0f 3e a0 fa d9 3c c6 b3 5a bc
       -0.049780853 0.14031075 0.026608765 -0.013348525
000090 38 f8 95 3d ce d3 bf 3c 08 6d 1b be 67 25 23 be
       0.073227346 0.023416426 -0.15178311 -0.15932237
0000a0 88 14 ec 3d ac 10 47 bc e2 5f ad 3d d8 ee 01 3d
       0.115273535 -0.012149971 0.08465554 0.03172192
0000b0 df 4b 61 bd 20 cd ad 3d c3 35 ef 3a c6 ca db 3c
       -0.055003997 0.0848639 0.0018250275 0.026830088
0000c0 96 df b5 bd ce 35 84 be 8f 4a aa 3d ab d5 3c bc
       -0.08880536 -0.258223 0.08315002 -0.011525552
0000d0 a0 57 91 bb 29 73 95 3d da 8b 54 3d 39 65 55 3e
       -0.0044354945 0.07297356 0.051891185 0.20839395
0000e0 19 39 06 3e ae 89 8c bc a4 84 33 3e 62 5a 59 3c
       0.13107719 -0.017155495 0.17531067 0.013266178
0000f0 68 25 d0 3d 3a ab bc 3b d0 b6 36 bd d7 e5 8d 3d
       0.10163385 0.0057577165 -0.044607937 0.06928604
000100 11 6a 5d 3d ed 26 dd 3d 0f f7 04 bd 11 eb 97 3d
       0.05405623 0.1079844 -0.032462176 0.07417882
000110 c8 21 d6 3c 7a 05 c4 3d 42 d0 42 3d 85 24 0c 3d
       0.026139155 0.09571357 0.04756189 0.034214515
000120 89 57 57 3d 5e e8 44 be 4a 28 84 bd da 17 1d bd
       0.052573714 -0.19229266 -0.06452997 -0.038352825
000130 83 a5 11 3e f4 62 9f bd c8 36 47 bd 04 71 b3 bd
       0.14223294 -0.07782546 -0.048636228 -0.087617904
000140 8c 7d eb bd 12 ef 80 3c f5 d2 ce 3d e6 4d 7e be
       -0.114985555 0.015738998 0.100988306 -0.24834403
000150 83 7b d5 3d 6c c3 80 bb bf b9 d0 bd ec 51 cf bd
       0.104239486 -0.003929546 -0.10191678 -0.10123047
000160 37 26 70 bd 2c 66 16 3e 04 f3 97 bc 54 83 a1 bc
       -0.058630195 0.14687413 -0.018548496 -0.019715942
000170 a5 26 db 3d 2c a4 3f 3d aa 72 30 3e 78 ee 30 be
       0.1070073 0.046787426 0.17231241 -0.17278469
000180 2e 26 03 bd de 82 52 3e 54 cc 04 3d 84 52 b1 bc
       -0.032018833 0.20557734 0.032421425 -0.021645792
000190 ba c7 1d 3d c4 84 bb 3c b3 36 bd 3d 85 47 ae bd
       0.038520552 0.022890456 0.09238949 -0.08509735
0001a0 db 17 8b 3d 52 3d fa 3d aa 36 c4 3d 1a 81 b8 bd
       0.067916594 0.12218727 0.09580739 -0.09008999
0001b0 e7 29 82 bd 92 62 0f bc bf 00 ae bc 20 28 1e 3d
       -0.063556485 -0.008751528 -0.02124059 0.038612485
0001c0 6f 24 c6 bd 44 d9 c9 3c 07 ee 62 3d 7c 51 8c bb
       -0.09674918 0.024639733 0.05540278 -0.0042821746
0001d0 8f a2 2e 3e 4e f5 6c bd 35 7d 0e be 34 69 4c 3d
       0.17054199 -0.05785113 -0.1391495 0.049905017
0001e0 05 73 9d bc a9 2b 2c be b1 72 c6 bd 5e e0 15 3e
       -0.019219885 -0.1681353 -0.096898444 0.1463637
0001f0 0d ec 0c bc 1c b9 9a 3d fb 75 8e bd 9f 56 23 3d
       -0.008601201 0.07554838 -0.06956097 0.03987753
