demo/andes_peru20.pt (torch_old, 739765 bytes, 16 tensors)

weight f4 [100, 2]
0	0x40d84a66	6.759082
1	0x404d3c7d	3.206817
2	0xbfbe6aa2	-1.4876292
3	0x400856c4	2.1302958
4	0x40347ae7	2.8200014
5	0x40439f8c	3.056613
6	0x40c49227	6.142841
7	0x40b8ce4e	5.7751837
8	0xc003e86d	-2.0610611
9	0xbfc30eb1	-1.5238858
10	0xc0a1272a	-5.036031
11	0xc03df523	-2.968087
12	0x405b49db	3.4263828
13	0x40880a82	4.2512827
14	0xc0773839	-3.8628066
15	0xbf5fc39a	-0.8740784
16	0x3ed01595	0.40641466
17	0x3fd8ff7d	1.6952969
18	0xbd52e518	-0.051488012
19	0xbe8dac57	-0.27670547
20	0x402c879e	2.6957774
21	0x3f0063ac	0.5015209
22	0xbe02e54a	-0.1278278
23	0xbf7c0397	-0.9844298
24	0x40504f5a	3.2548432
25	0xc1a27941	-20.309206
26	0x40ac55bf	5.385467
27	0x40b6394b	5.694494
28	0x3dc4b563	0.09604909
29	0x3fb941e9	1.4473239
30	0x400cf59b	2.2024906
31	0xbffb3487	-1.9625405
32	0x3fa07eb4	1.2538667
33	0x3e42d493	0.19026403
34	0xbf8b2739	-1.0871345
35	0x3ece50a6	0.40295905
36	0x4077b1f6	3.8702369
37	0x403ad68d	2.9193451
38	0x3f45b0c2	0.77222836
39	0xbfa6f796	-1.3044307
40	0x3f9c89a7	1.2229508
41	0x408d4a90	4.415352
42	0xc0804d4d	-4.009436
43	0xc03afa9c	-2.921546
44	0x3fbb1c5f	1.4618033
45	0x3fcdeb22	1.6087382
46	0x3c050037	0.008117727
47	0x3fb8c05d	1.4433705
48	0x3eb2052b	0.34769568
49	0xbf277aaf	-0.65421575
50	0xc0090339	-2.1408217
51	0xc09ec05d	-4.960982
52	0xbff659e2	-1.924618
53	0xc01f2608	-2.4866962
54	0x3f9722e4	1.1807523
55	0x3f9013e4	1.125607
56	0xc01d999e	-2.462501
57	0xbf81bf9b	-1.0136598
58	0x3ffff0d1	1.9995366
59	0x3f60071b	0.8751084
60	0x3f951b91	1.1649038
61	0x4016a540	2.353836
62	0xc10399f0	-8.225082
63	0xc0acf1b7	-5.404506
64	0x3f71967e	0.9437026
65	0x3fe85dd2	1.8153632
66	0x40607793	3.5072982
67	0x4065b5d3	3.5892227
68	0xbfc615a8	-1.5475359
69	0x3fbf1b26	1.493016
70	0x3f4e0158	0.804708
71	0x3f4b13d0	0.79327106
72	0x412d2685	10.821904
73	0x417aca59	15.674401
74	0xc0f9fd7d	-7.8121934
75	0xc0a0ce2c	-5.0251675
76	0xc046a0e0	-3.103569
77	0xc0a1f320	-5.0609283
78	0x3fb2c94e	1.3967683
79	0x40ab2a5c	5.348921
80	0x40390159	2.8907073
81	0x3f684fd1	0.9074679
82	0x3f7c7cfe	0.9862822
83	0x3f2e99f2	0.6820365
84	0xc0965dec	-4.698965
85	0xc0de81c7	-6.953342
86	0x407667be	3.850082
87	0xbf81a130	-1.0127316
88	0xbe50bf50	-0.2038548
89	0xc0035051	-2.0517771
90	0xbf957fc0	-1.1679611
91	0xbf4fc99f	-0.81167024
92	0x40897379	4.295346
93	0x3f82f4fd	1.0231014
94	0x3f7484c7	0.955151
95	0x3f255cbe	0.6459464
96	0x40b39012	5.6113367
97	0xbeba9c3d	-0.36447325
98	0xc04160ea	-3.0215402
99	0xbe5e50e1	-0.2171054
100	0xbeb25524	-0.34830582
101	0xbf92afe5	-1.1459929
102	0x3e9cd28e	0.3062939
103	0x4015feee	2.3436847
104	0x3faed94a	1.3660061
105	0x405b7efb	3.4296253
106	0xbf254d7b	-0.6457135
107	0xbee33ed2	-0.44383866
108	0xbf0929b9	-0.5357929
109	0xbfa587b2	-1.2932036
110	0xc042a966	-3.0415893
111	0xbfc5ebc2	-1.5462573
112	0xc11ae04f	-9.679763
113	0xc09c80fc	-4.890745
114	0x400e9a79	2.2281783
115	0x3f2dbe90	0.678689
116	0xbff95e02	-1.9481814
117	0xc0561ed5	-3.3456318
118	0xbf977978	-1.1833944
119	0xbf6286cb	-0.8848693
120	0xc008e0a4	-2.138711
121	0xbf70351e	-0.9383105
122	0x40768e0f	3.8524206
123	0x400dc7df	2.2153242
124	0xc061b11e	-3.5264354
125	0xbe5ab33a	-0.21357432
126	0xbebe88a6	-0.3721363
127	0x3e44d4cc	0.192218
128	0xc0add4b2	-5.432214
129	0xc08e1bf9	-4.4409146
130	0x400e7968	2.22616
131	0x3f16f45a	0.589666
132	0xc080daab	-4.026693
133	0xc0b3f6d7	-5.623882
134	0x409b9277	4.861629
135	0x401eaaf8	2.479185
136	0xbf46490c	-0.7745521
137	0x4007d02c	2.1220808
138	0xbf1e0c81	-0.6173783
139	0x3e127c8d	0.14305325
140	0x3ee6801e	0.4501962
141	0x3ff0c7ec	1.8811011
142	0xc00203ce	-2.0314822
143	0xc0940666	-4.625781
144	0x3f2c85df	0.6739177
145	0x3f91c537	1.138831
146	0x3fcb14be	1.5865705
147	0x3f7f639d	0.9976137
148	0x40096c45	2.1472332
149	0x3fc2fb32	1.5232909
150	0x3f7d96e2	0.99058354
151	0xc079589d	-3.8960335
152	0x3f66e4ac	0.90192676
153	0x3f100dad	0.5627087
154	0xbfd51f5f	-1.6650199
155	0xc078ef2f	-3.8895986
156	0xc0bf2bf4	-5.9741154
157	0xc0d78499	-6.734936
158	0x3f92aaca	1.1458371
159	0x4020c77a	2.512175
160	0xc07c7c49	-3.9450858
161	0x3dae0d6a	0.08498652
162	0x3e7c585d	0.24643083
163	0x3f63ffe4	0.89062333
164	0xc0a8f26e	-5.2795935
165	0xbf9d70ad	-1.2300011
166	0x3ee1b740	0.4408512
167	0xbfbf3082	-1.4936678
168	0xc102fd24	-8.186802
169	0xc0370856	-2.8598838
170	0x3eb6c97f	0.35700604
171	0x3ff69e7a	1.9267113
172	0x40be47c1	5.946259
173	0x41007474	8.028431
174	0xbfd2aa31	-1.6458188
175	0xbfea35f3	-1.8297714
176	0xc03b3d24	-2.9256067
177	0xc086695c	-4.2003613
178	0xc013fc00	-2.3122559
179	0xbdcafeaa	-0.099118546
180	0x3e9bc893	0.30426463
181	0xbfe588d7	-1.7932385
182	0x41f1cbf8	30.224594
183	0xc00df083	-2.2178047
184	0x40632722	3.5492635
185	0x407c10cf	3.938526
186	0x40a80bc3	5.2514358
187	0x4053aa6d	3.307277
188	0x3f7bee4a	0.98410475
189	0x4095af41	4.6776433
190	0x3f252d0c	0.6452186
191	0xc08f06e1	-4.4695897
192	0xbf510c67	-0.8165955
193	0xbf650d4c	-0.89473414
194	0x3eaedb97	0.3415191
195	0x40e16b4a	7.044347
196	0x40055147	2.0830858
197	0x40abed1f	5.3726954
198	0xc06e44a0	-3.7229385
199	0xc0539207	-3.3057878

bias f4 [100]
0	0x3ea70e39	0.3262804
1	0x3ea8b025	0.32946888
2	0x3dff4574	0.12464419
3	0x3d576f96	0.05259665
4	0x3f00b2db	0.5027291
5	0xbe86bb2b	-0.26314673
6	0x3ea3cd84	0.31992733
7	0xbf23c948	-0.63979006
8	0x3ee1b8d6	0.4408633
9	0xbd9927ba	-0.0747828
10	0x3d877eb4	0.066159636
11	0xbdbb7c31	-0.09154547
12	0xbdca8c5a	-0.09890051
13	0x3ba45f2d	0.0050162286
14	0x3ea17c97	0.31540367
15	0xbf1ec3f9	-0.6201778
16	0xbe2ebcc5	-0.17064197
17	0xbdeb23fe	-0.11481474
18	0x3f0fee00	0.56222534
19	0x3f184ce5	0.5949233
20	0x3f07b876	0.5301584
21	0xbe8083aa	-0.25100452
22	0xbbc74958	-0.0060817413
23	0x3eab94b4	0.3351189
24	0x3ed3816e	0.41309685
25	0xbecead7d	-0.40366736
26	0xbe90126e	-0.2813906
27	0xbe0814e4	-0.13289219
28	0x3b579cee	0.0032899934
29	0x3db69f0f	0.08917057
30	0xbe8335e0	-0.2562704
31	0xbe382b14	-0.17985183
32	0x3e8a4444	0.27005208
33	0xbe96b513	-0.29435024
34	0x3e6c6332	0.23084715
35	0x3e187499	0.14888228
36	0xbc21cafe	-0.009875057
37	0x3d38e406	0.045139335
38	0xbe96a6e9	-0.29424217
39	0xbc7b90f1	-0.015354381
40	0xbf15d69b	-0.58530587
41	0xbf1ac43b	-0.60455674
42	0x3f087630	0.5330534
43	0x3b0aa8a4	0.0021157647
44	0xbf0f7ef7	-0.5605311
45	0x3cab77a6	0.020931076
46	0x3c8f7835	0.017513374
47	0x3e0bb198	0.13641965
48	0x3ed1ce93	0.40977916
49	0xbf0e2e9b	-0.55539864
50	0x3decd100	0.11563301
51	0x3f1146e4	0.56748796
52	0xbec97443	-0.39346513
53	0xbc9978bd	-0.01873433
54	0xbe231bb0	-0.1592853
55	0xbefa8686	-0.48930758
56	0x3c28ce3c	0.010303076
57	0x3ea4cee3	0.32189092
58	0xbec96393	-0.39333782
59	0xbee4a770	-0.44658995
60	0x3e8d931f	0.27651307
61	0xbc2ce149	-0.010551759
62	0xbd09073b	-0.03345416
63	0x3ea3f091	0.32019475
64	0xbe0ff511	-0.14058329
65	0x3ef6c07d	0.48193732
66	0x3f01d686	0.5071796
67	0x3e1aa184	0.15100676
68	0xbe156373	-0.14588718
69	0x3ee7f06b	0.45300612
70	0x3cdf97d2	0.027294073
71	0x3ddf08fc	0.108903855
72	0xbf0912d7	-0.5354437
73	0x3ea30da1	0.31846336
74	0x3ea4aaed	0.32161656
75	0x3e8abc13	0.27096614
76	0xbd2f4821	-0.042793397
77	0xbecc75c3	-0.39933595
78	0xbe85d9e8	-0.26142812
79	0x3e124a6e	0.14286205
80	0x3e98e46f	0.2986178
81	0x3e659f7a	0.22424117
82	0xbefaaa43	-0.48958024
83	0xbefcc6f6	-0.49370545
84	0x3d60fdca	0.054929532
85	0x3f0d3029	0.5515161
86	0xbbf9dbf3	-0.007625097
87	0xbefba07e	-0.49145883
88	0xbb3c4c44	-0.0028731981
89	0x3f0c4a5c	0.54800963
90	0x3f0d20c1	0.55128103
91	0xbe1ce44f	-0.15321468
92	0x3e41515e	0.18878695
93	0xbedf0853	-0.43561038
94	0xbee2e908	-0.44318414
95	0xbdc8c895	-0.09803883
96	0x3f0a13ce	0.5393647
97	0xbea1cde3	-0.31602392
98	0x3eaa6f47	0.33288023
99	0xbdb39d85	-0.08770279

weight_ih_l0 f4 [300, 100]
0	0xbd460cbc	-0.04835199
1	0xbdada170	-0.084780574
2	0x3d298167	0.041383173
3	0x3d2d408c	0.042297885
4	0x3dbfe2e9	0.093694516
5	0xbc0385da	-0.008027518
6	0x3cd0e61a	0.025500346
7	0x3d65eb6d	0.056132723
8	0x3bec40c9	0.0072098714
9	0xbc45b505	-0.012067084
10	0x3d1e5967	0.03865948
11	0xbdd3d481	-0.10343266
12	0xbd43b32a	-0.047778286
13	0xbd6943bb	-0.05694936
14	0xbd8e05bd	-0.06934688
15	0x3da33485	0.07969002
16	0x3d6dd587	0.058064964
17	0x3d882dfa	0.06649394
18	0x3d76a407	0.060215022
19	0xbdbcbf8e	-0.09216224
20	0xbd574e0c	-0.052564666
21	0xbdb4adc0	-0.08822203
22	0xbd2cc766	-0.04218235
23	0x3a72d287	0.00092629384
24	0xbd6b9bc9	-0.057521615
25	0x3dc1c6fb	0.09461781
26	0x3d389215	0.04506119
27	0xbd830e9e	-0.063992724
28	0xbb62fce1	-0.003463559
29	0xbdbb18f2	-0.09135617
30	0xbb6ed0b8	-0.0036440324
31	0xbbb9fae5	-0.005675661
32	0xbd9b1ed6	-0.07574241
33	0xbce898d2	-0.028393183
34	0x3dd30052	0.103027955
35	0x3d8ba43b	0.06818434
36	0xbaa874a4	-0.0012852144
37	0x3dc29a66	0.095021054
38	0xbdc7705a	-0.09738226
39	0xbd2e76b2	-0.042593665
40	0x3d5710f5	0.052506406
41	0x3da18961	0.07887531
42	0x3d0c4dec	0.034254
43	0x3bcf55b6	0.006327356
44	0xbd8738c0	-0.06602621
45	0x3dc38942	0.09547664
46	0xbbe94be2	-0.0071196416
47	0xbd8bf898	-0.06834525
48	0x3d83e072	0.06439294
49	0xbd3a96bb	-0.045553904
50	0xbc94d22f	-0.01816663
51	0xbc147c9b	-0.009062911
52	0xbd757374	-0.059924558
53	0xbd5ad68b	-0.05342726
54	0xbd636e8e	-0.055525355
55	0xbd9e20da	-0.0772111
56	0xbb6ad701	-0.0035833719
57	0x3d62cbdc	0.055370197
58	0xbcfa3214	-0.030541457
59	0xbd0ef8ae	-0.03490513
60	0x3be43b51	0.006965079
61	0x3dae9557	0.08524578
62	0xbcc3cdf3	-0.023901915
63	0xbd538edf	-0.051649924
64	0x3c417347	0.011807269
65	0x3c951f12	0.018203292
66	0x3dcad6b2	0.09904231
67	0xbc82e8e3	-0.01598019
68	0x3db9d543	0.090738796
69	0xbdb0b1e4	-0.0862768
70	0x3da75aa4	0.08171585
71	0x3dd33d65	0.103144445
72	0xbcd9815a	-0.026550937
73	0xbdc2e6aa	-0.09516652
74	0xbdacfcc1	-0.084466465
75	0x3dc2d8ee	0.09514032
76	0x3cf481de	0.029847082
77	0x3cd29a4e	0.025708344
78	0xbd38a2ed	-0.045077253
79	0xbd435556	-0.047688805
80	0xbcaffdda	-0.02148335
81	0x3dc00c6e	0.09377371
82	0x3b821898	0.003970217
83	0x3da9caef	0.0829066
84	0x3d876d4c	0.066126436
85	0x3d75b5da	0.05998788
86	0xbc43f15d	-0.011959401
87	0xbdcc37e5	-0.099715985
88	0x3d297ca8	0.041378647
89	0xbdb55bde	-0.08855413
90	0x3c3aac3d	0.011393604
91	0x3d2fe237	0.042940345
92	0x3c9b3110	0.018944293
93	0x3b944f13	0.004526028
94	0xbd78e756	-0.060767494
95	0x3d91fb38	0.07127994
96	0x3cbec576	0.023287516
97	0xbd44a8df	-0.04801261
98	0xbd3cd10f	-0.04609781
99	0xbdace52a	-0.08442147
100	0x3d26f3ed	0.04075997
101	0x3d277834	0.04088612
102	0x3dcda105	0.10040478
103	0x3ce35deb	0.027754745
104	0x3da5e764	0.08100775
105	0xbd807c38	-0.06273693
106	0x3c7be849	0.015375205
107	0xbdd1812b	-0.10229715
108	0xbd80a970	-0.06282318
109	0xbdc651bc	-0.09683558
110	0xbda8efba	-0.08248849
111	0xbdcd5fb8	-0.100280225
112	0xbedeafa1	-0.4349337
113	0x3d972249	0.07379586
114	0x3d424e5a	0.047438003
115	0xbd1e4cc5	-0.038647432
116	0xbdc3d734	-0.09562531
117	0xbde6c335	-0.112677015
118	0x3dc8539e	0.09781574
119	0x3c90d0e9	0.017677741
120	0x3da330c4	0.07968286
121	0xbdbe80a3	-0.09301879
122	0x3d87cbbf	0.06630658
123	0x3dc4104f	0.09573423
124	0xbda26551	-0.07929481
125	0x3ba52a21	0.0050404225
126	0xbd4db9db	-0.050226074
127	0xbdc3d227	-0.09561568
128	0x3c17b796	0.009260079
129	0x3db37f8d	0.08764563
130	0x3d399335	0.045306403
131	0x3d9e031e	0.07715438
132	0x3d90de61	0.070736654
133	0x3d0a4e51	0.033766095
134	0x3dda0d08	0.10647017
135	0x3cbda13f	0.023148177
136	0x3d0bcbd7	0.034129944
137	0x3c08436e	0.008316858
138	0xbdac39c9	-0.08409459
139	0x3d08f653	0.033438038
140	0xbdd7ce49	-0.10537393
141	0x3d9ca266	0.076481625
142	0x3d53b731	0.051688377
143	0xbdc43168	-0.09579736
144	0x3d7e829e	0.062136285
145	0xbd7b0eae	-0.061293297
146	0x3d912bb1	0.070884116
147	0x3dd184f5	0.10230438
148	0xbd922c9d	-0.071374156
149	0xbd49dd8c	-0.04928355
150	0x3dd27a27	0.10277205
151	0x3dc6417b	0.09680458
152	0x3d14922a	0.036272205
153	0xbd1b1cf4	-0.03786941
154	0x3da0af71	0.07845963
155	0x3d81a93d	0.06331108
156	0xbd8ddc7b	-0.06926819
157	0x3dd232b5	0.10263578
158	0xbd26623d	-0.04062103
159	0xbc9f47f0	-0.019443482
160	0x3db04c90	0.08608353
161	0xbd813fe3	-0.063110135
162	0x3d4a7a22	0.04943288
163	0x3ca9e6f9	0.02074002
164	0x3d2e7928	0.042596012
165	0xbd8a9b02	-0.06767847
166	0xbc156bc9	-0.009119936
167	0x3d6471e2	0.05577267
168	0x3d59a4b6	0.053135596
169	0x3da04532	0.07825698
170	0x3c48c123	0.012253079
171	0x3d374f4a	0.04475335
172	0x3d9d744a	0.07688196
173	0x3d97668f	0.073926084
174	0x3dd517e0	0.104049444
175	0x3de3a4ab	0.11115392
176	0xbca68c14	-0.020330466
177	0x3c3a1486	0.011357432
178	0x3d92f9d8	0.0717656
179	0x3defef7e	0.117156014
180	0x3d7f9613	0.06239898
181	0x3d5a8b11	0.05335528
182	0xbd4d7de0	-0.050168872
183	0xbdf09614	-0.11747375
184	0x3cb3904a	0.021919388
185	0x3d17d02b	0.03706376
186	0xbcecf05d	-0.028923208
187	0x3d685680	0.056723118
188	0xba6efd18	-0.00091166934
189	0x3cafa456	0.021440666
190	0x3c6a0011	0.014282242
191	0xbeff5358	-0.49868274
192	0x3c8b9fc4	0.017043956
193	0xbdd9ea6f	-0.10640418
194	0xbd4fbf44	-0.050719514
195	0xbd6b3764	-0.05742587
196	0x3d183c16	0.037166677
197	0xbdc7fe68	-0.09765321
198	0x3dc84121	0.09778047
199	0xbda00aaf	-0.07814538
200	0x3d5d4f7f	0.05403089
201	0x3cead941	0.028668048
202	0xbd84f739	-0.064924665
203	0x3c633850	0.013868406
204	0xbe1f0130	-0.15527797
205	0x3e07f53c	0.13277143
206	0xbdc0c537	-0.09412616
207	0x3df07ce4	0.11742571
208	0x3c2ac2e6	0.010422444
209	0xbc88e4c6	-0.01671065
210	0xbd800a09	-0.06251914
211	0x3be54739	0.006997016
212	0xbf33544a	-0.7005049
213	0x3dcad326	0.099035546
214	0xbc5b1138	-0.0133708045
215	0x3d689fd3	0.056793045
216	0x3d9a4b23	0.075338624
217	0x3e19114c	0.14948004
218	0xbc2e13e0	-0.010624856
219	0x3ca5b23a	0.020226587
220	0xbde53ee2	-0.111936346
221	0x3d1971d0	0.037462056
222	0xbe0ff279	-0.1405734
223	0xbd2cf00c	-0.042221114
224	0xbddf86d7	-0.109143905
225	0x3dc79ee3	0.09747102
226	0xbc924b3f	-0.017858146
227	0x3d8ff1d1	0.07028545
228	0xbc8ea305	-0.017411718
229	0x3b9b282a	0.0047350125
230	0x3c9cb795	0.019130507
231	0xbce8f6b8	-0.028437957
232	0x3d02887f	0.031868454
233	0x3df8da00	0.12150955
234	0xbe1189ab	-0.14212672
235	0x3cc49a47	0.023999346
236	0x3f083c87	0.5321736
237	0xbd4a2df2	-0.049360223
238	0x3c8b78e6	0.017025422
239	0x3e47e853	0.19522218
240	0x3d157417	0.036487665
241	0x3dbbfaca	0.091786936
242	0xbd9bbaf2	-0.07604016
243	0x3c291045	0.01031882
244	0x3db92087	0.09039407
245	0xbe0e9223	-0.13922934
246	0x3c1b2140	0.009468377
247	0x3d424a60	0.04743421
248	0x3c84b717	0.016200585
249	0xbd394b3d	-0.04523777
250	0xbd22cef6	-0.039748155
251	0xbd257975	-0.040399034
252	0xbcf5ce89	-0.03000571
253	0xbcab2adf	-0.020894466
254	0x3bde090b	0.0067759803
255	0x3dd7691a	0.105180934

weight_hh_l0 f4 [300, 100]
0	0x3b8e2cc7	0.004338834
1	0xbd8d2d16	-0.06893365
2	0x3c5d19a2	0.013494881
3	0xbc38e1e8	-0.011284329
4	0x3defcf23	0.1170943
5	0x3bb496f5	0.0055111595
6	0x3ca48765	0.020084092
7	0xbd584442	-0.05279947
8	0x3d63d67b	0.055624466
9	0x3d3dcfd0	0.046340764
10	0x3cfc454d	0.030794764
11	0x3d2733b4	0.040820792
12	0x3dfa275d	0.12214539
13	0x3cfc2032	0.03077707
14	0xbcd45093	-0.025917327
15	0xbdda80d5	-0.10669104
16	0x3d61e9ff	0.055154797
17	0xbd384d37	-0.044995513
18	0xbdecc2cf	-0.11560594
19	0x3d6a5aad	0.05721538
20	0x3d7fc523	0.062443864
21	0xbc02d14b	-0.00798447
22	0xbd25dcee	-0.040493898
23	0x3ded2f74	0.115813166
24	0xbd868c7d	-0.06569765
25	0x3cb95b64	0.022626586
26	0x3daf5947	0.0856195
27	0xbd400732	-0.046881862
28	0xbd6ea2ff	-0.058260914
29	0x3db70942	0.08937313
30	0xbc9bbf9b	-0.019012263
31	0xbc9602d1	-0.01831189
32	0xbd98e9ee	-0.074664935
33	0xbb30edad	-0.0026997135
34	0x3dd7793d	0.10521171
35	0x3d051272	0.032488294
36	0xbcaabad7	-0.020841045
37	0xbd8160c1	-0.063172825
38	0xbd9bf275	-0.076146044
39	0x3d003c5b	0.03130756
40	0x3d048004	0.032348648
41	0x3d38cd39	0.04511759
42	0x3dc81dcf	0.097713105
43	0x3d7b6375	0.061374146
44	0x3d4cf038	0.050033778
45	0xbcdfd150	-0.027321488
46	0xbd886b62	-0.06661107
47	0x3d1e7dbe	0.038694136
48	0x3d2c33f1	0.042041723
49	0xbcbfe943	-0.023426658
50	0xbdc4571c	-0.09586927
51	0xbc98e14a	-0.018662114
52	0x3cd37c2e	0.02581605
53	0xbdfd1315	-0.12357155
54	0xbd89fdc5	-0.06737856
55	0x3b8cbe10	0.004295118
56	0xbda59850	-0.08085692
57	0xbde9f596	-0.11423795
58	0x3d19cf57	0.03755125
59	0x3dbb63ff	0.09149932
60	0xba1751ed	-0.0005772401
61	0x3b862835	0.0040941485
62	0x3b08bedd	0.0020865717
63	0xbd9ee0c7	-0.077577166
64	0xbd313e13	-0.04327209
65	0xbd52062d	-0.05127542
66	0xbc90fb8a	-0.017698068
67	0xbd116e5a	-0.03550563
68	0x3d83e774	0.064406306
69	0xbdcac355	-0.09900538
70	0x3d0985ec	0.033574983
71	0x3d7e6edd	0.062117446
72	0xbdabacb0	-0.08382547
73	0xbc7fae38	-0.015605502
74	0x3dad9a24	0.084766656
75	0xbd4fdc3d	-0.050747145
76	0x3d7333a1	0.05937541
77	0xbce7b00e	-0.028282192
78	0xbd3ec2f9	-0.04657266
79	0xbd3eb7bb	-0.046561938
80	0xbd4d1da0	-0.05007708
81	0xbc853903	-0.016262537
82	0x3bc48893	0.005997726
83	0xbdf06576	-0.11738102
84	0x3db9c2ac	0.09070334
85	0x3dcd5cc2	0.10027458
86	0xbd9a4f5f	-0.0753467
87	0xbd95c086	-0.073121116
88	0xbdcee9ef	-0.10103213
89	0x3c8ed303	0.017434603
90	0x3cfa9100	0.03058672
91	0xbcadf824	-0.021236487
92	0xbcd918fd	-0.026501173
93	0x3bb78844	0.005600961
94	0x3dbfa1aa	0.09357007
95	0xbc060866	-0.008180713
96	0xbd37c0c1	-0.04486156
97	0xbdce4ee5	-0.10073642
98	0xbcfb85ec	-0.030703507
99	0x3b690ab0	0.0035559349
100	0x3d029816	0.03188332
101	0xbdad4115	-0.08459679
102	0x3b8418b5	0.0040312656
103	0xbdb1ab22	-0.08675219
104	0x3d6c1405	0.05763628
105	0xbdbd8468	-0.0925377
106	0xbd90309a	-0.0704052
107	0xbdd49854	-0.10380617
108	0x3d4c7a51	0.049921338
109	0x3d5b7234	0.05357571
110	0xbbb8427f	-0.0056231613
111	0xbd164979	-0.036691163
112	0x3d3981a6	0.045289658
113	0x3d0d5bc6	0.03451135
114	0x3dc561bf	0.09637784
115	0xbc63a577	-0.01389443
116	0xbe22f2a7	-0.15912877
117	0x3d9ce24a	0.07660349
118	0xbd207bca	-0.039180554
119	0xbb62be87	-0.0034598426
120	0x3c0dc697	0.008653305
121	0xb99f4871	-0.00030380816
122	0xbd1bbd78	-0.03802249
123	0x3d342de6	0.043989085
124	0xbdbaf492	-0.09128679
125	0xbde4c4b6	-0.11170332
126	0xbd2fa63e	-0.04288315
127	0x3cd000ce	0.025391009
128	0xbd41d6e7	-0.047324087
129	0x3e2b3118	0.16717947
130	0xbde5b718	-0.11216563
131	0xbd5758e7	-0.05257502
132	0xbdd60413	-0.10449996
133	0x3d0850f6	0.033280335
134	0xbd486a21	-0.048929337
135	0x3d871567	0.06595879
136	0xbd69a954	-0.05704625
137	0xbd134326	-0.03595271
138	0xbd950aef	-0.07277476
139	0x3d2e3505	0.042531032
140	0x3dd9e696	0.10639684
141	0xbc46067b	-0.012086506
142	0xbc8a5ec3	-0.016890889
143	0x3d5606fa	0.052252747
144	0x3dc47166	0.095919415
145	0xbd2690a1	-0.040665273
146	0xbdd1bc43	-0.10240986
147	0xbda491fd	-0.080356576
148	0x3d45fae7	0.048334982
149	0xbd1060f1	-0.0352487
150	0xbd9f2acc	-0.07771835
151	0x3cf6c223	0.030121868
152	0x3d0e5aa1	0.0347544
153	0x3a275739	0.00063835416
154	0xbe0015f1	-0.1250837
155	0xbd2f3337	-0.04277345
156	0x3d0b3089	0.033981834
157	0xbcf90d65	-0.030401895
158	0xbd133f2c	-0.035948917
159	0x3dc01ef3	0.09380903
160	0xbc8a2513	-0.016863381
161	0xbd246f5b	-0.04014526
162	0xbd59fae0	-0.05321777
163	0x3c290bcf	0.010317757
164	0xbd903dc5	-0.070430316
165	0x3d1b0962	0.037850745
166	0xbd3e8cc4	-0.046520963
167	0x3df36ebd	0.11886356
168	0xbd833685	-0.06406883
169	0x3e142910	0.14468789
170	0x3c18a785	0.0093172835
171	0x3c6d107d	0.014469263
172	0x3c76dc30	0.015067145
173	0x3c9f3b77	0.019437535
174	0x3d71aada	0.059000827
175	0x3dc555de	0.096355185
176	0x3ba10f52	0.0049151564
177	0xbe1ba68d	-0.15200253
178	0xbe00afc7	-0.12567054
179	0xbd932539	-0.07184834
180	0x3d6823b8	0.05667469
181	0x3ddadb3c	0.10686347
182	0xbd4121d1	-0.04715139
183	0xbda35479	-0.07975096
184	0x3d825d46	0.06365447
185	0x3e30aa64	0.17252499
186	0xbd730ff2	-0.05934138
187	0xbdac21c8	-0.08404881
188	0xbd5712b6	-0.05250808
189	0xbe062a20	-0.13102007
190	0x3d2269de	0.039651744
191	0x3dced857	0.10099857
192	0x3d353d74	0.04424806
193	0x3dabc45e	0.083870634
194	0x3d2faa9c	0.042887315
195	0xbd350ffd	-0.0442047
196	0xbc00c943	-0.0078604845
197	0xbdd48377	-0.103766374
198	0xbd9c26a9	-0.07624561
199	0x3d0f4262	0.034975417
200	0x3ccb14cf	0.024790196
201	0x3d5b748f	0.053577956
202	0xbcc685a5	-0.024233649
203	0x3dc82021	0.09771753
204	0xbdadd9da	-0.084888175
205	0x3d8c32d5	0.06845633
206	0x3dbb3d5a	0.09142561
207	0x3daf5263	0.08560636
208	0xbc05804e	-0.008148266
209	0xbd52f408	-0.051502258
210	0x3e159d8f	0.14610885
211	0x3d2edf4b	0.042693418
212	0xbd34aac7	-0.04410818
213	0xbcb46d3d	-0.022024745
214	0x3c3bbea8	0.01145903
215	0xbb964a42	-0.004586489
216	0x3d84c4e6	0.06482868
217	0xbd2d5cfe	-0.042325012
218	0x3e17098b	0.14749734
219	0x3dcc0d49	0.099634714
220	0xbd68ad09	-0.056805644
221	0x3dcb2042	0.09918262
222	0xbe2532e0	-0.16132689
223	0xbc835840	-0.016033292
224	0x3d180e02	0.037122734
225	0xbcc707ee	-0.024295773
226	0xbd7dae85	-0.061934013
227	0x3c427ffa	0.011871332
228	0xbc3d3b55	-0.01154979
229	0xbd466d57	-0.04844412
230	0x3d9b0738	0.07569736
231	0x3e0ea847	0.1393138
232	0x3ad531ec	0.0016265488
233	0xbd960564	-0.07325247
234	0xbe085b03	-0.13315968
235	0xbc3ffe3b	-0.011718328
236	0xbcfcaade	-0.030843195
237	0xbd161e5d	-0.03665005
238	0xbdc86e58	-0.097866714
239	0x3e1395a4	0.14412552
240	0x3e19485a	0.14969006
241	0xbdcbf249	-0.099583216
242	0x3d035b61	0.032069568
243	0x3c9987dd	0.018741542
244	0x3e210f44	0.1572848
245	0xbdc77005	-0.09738163
246	0x3cc779f7	0.02435015
247	0xbb32551c	-0.0027211374
248	0xbcd05eb2	-0.02543578
249	0x3dda9c94	0.10674396
250	0x3daa7a7c	0.08324143
251	0x3caa87aa	0.020816643
252	0x3db75bbc	0.08953044
253	0xbcb6e76b	-0.022327146
254	0xbcb7eaa8	-0.02245076
255	0x3b3be996	0.0028673164

bias_ih_l0 f4 [300]
0	0x3dbacd5b	0.091212
1	0x3ce031cf	0.0273675
2	0xbe042842	-0.12905982
3	0x3d6426a3	0.05570091
4	0x3dfe79a8	0.12425548
5	0xbc4522f5	-0.01203226
6	0xbdabb4b2	-0.08384074
7	0x3d289c56	0.04116472
8	0x3d57b691	0.052664343
9	0x3d1762e4	0.036959544
10	0xb990e77f	-0.00027638298
11	0x3df55882	0.11979772
12	0x3da33421	0.07968927
13	0x3c161d42	0.009162249
14	0x3dbda47b	0.09259888
15	0x3d4dc926	0.05024066
16	0x3ba4b13e	0.0050260117
17	0x3d728744	0.05921103
18	0x3d1dc94e	0.038522057
19	0x3d0a7976	0.03380724
20	0x3d3b7f66	0.045775793
21	0x3d9c99af	0.076465
22	0xbd0d0dd7	-0.034437027
23	0x3d17be3a	0.03704665
24	0x3d31696f	0.04331344
25	0x3dd0cd88	0.10195452
26	0x3c97bc3b	0.018522372
27	0xbcde05d2	-0.027102385
28	0xbd68e573	-0.056859445
29	0xbd0fc89a	-0.035103418
30	0x3dd2578d	0.10270605
31	0xbddd381c	-0.10801718
32	0x3b372711	0.002794687
33	0xbd7aa75b	-0.06119476
34	0x3e34c7f9	0.17654409
35	0x3d81d1df	0.06338858
36	0xbc56e069	-0.013115027
37	0x3d2ba8eb	0.04190914
38	0xbbbc0101	-0.0057374244
39	0x3da1cfde	0.07900976
40	0xbdb02123	-0.0860007
41	0x3c11228e	0.008858336
42	0xbd12a6b3	-0.035803508
43	0xbdf60d85	-0.120142974
44	0x3d123cd4	0.03570254
45	0xbdacb54c	-0.08433017
46	0x3db3bdd8	0.08776444
47	0xbc9b60c4	-0.01896704
48	0x3d98dac0	0.07463598
49	0x3cbcd793	0.023052013
50	0xbdb55fab	-0.08856138
51	0xbd5a0166	-0.05322399
52	0x3c2b3621	0.010449917
53	0xbde189e4	-0.11012629
54	0xbd9bb6e2	-0.076032415
55	0xbe0578d3	-0.13034372
56	0x3da15be3	0.07878854
57	0xbda7706f	-0.08175742
58	0x3c2f5d1b	0.01070335
59	0x3d7fca81	0.062448982
60	0xbcd9aef7	-0.026572688
61	0xbc236d2e	-0.009974761
62	0xbcacc967	-0.02109213
63	0x3e0f4b61	0.13993599
64	0x3d2a80f1	0.041626874
65	0x3cd2e18b	0.025742313
66	0xbc808559	-0.015688585
67	0xbd22b730	-0.039725482
68	0xbb51f160	-0.003203474
69	0x3d9afed2	0.07568134
70	0x3e185259	0.14875163
71	0xbd9d8809	-0.07691962
72	0x3ddaf6c7	0.106916
73	0x3d6da70b	0.058020633
74	0xbe0bc818	-0.13650548
75	0x3d627550	0.05528766
76	0xbdaf9440	-0.08573198
77	0xbdc838b1	-0.09776438
78	0x3bec262a	0.007206698
79	0x3ddafb8f	0.10692512
80	0xbe0d86fd	-0.13821025
81	0x3cd19d45	0.025587687
82	0x3deab6fd	0.114606835
83	0x3d2bf220	0.041978955
84	0xbda1c663	-0.078991674
85	0xbda30b1f	-0.079611056
86	0x3dbf5eed	0.093442775
87	0x3de16533	0.1100563
88	0x3da4dbe6	0.08049755
89	0x3d601b9d	0.054713834
90	0x3df934a9	0.12168247
91	0x3d5fd62c	0.05464761
92	0xbcc6442c	-0.024202429
93	0x3ca2c7c1	0.01987064
94	0x3d01bf04	0.031676307
95	0x3e190498	0.14943159
96	0x3de63b1e	0.112417445
97	0xbddaf457	-0.106911354
98	0x3cb7735d	0.022393877
99	0x3ccb758e	0.024836328
100	0x3c79dbf5	0.015250196
101	0x3df17ae0	0.11791015
102	0x3d1f72f2	0.03892798
103	0x3da6772f	0.08128201
104	0x3da736bb	0.08164736
105	0x3d6ddc42	0.058071382
106	0x3dcc10d6	0.09964149
107	0x3d892a6b	0.06697544
108	0xbc613c22	-0.013747247
109	0x3e34a936	0.17642674
110	0x3c45af02	0.012065651
111	0x3db91b93	0.090384625
112	0x3d7f7b91	0.0623737
113	0xbd31ea7c	-0.043436512
114	0x3c041ad5	0.008063038
115	0x3cef0f64	0.029182144
116	0x3d45cd74	0.04829164
117	0xbdcbf712	-0.09959234
118	0x3e0cbb79	0.1374339
119	0x3e0b4af7	0.13602816
120	0xbd7136ce	-0.058890156
121	0x3d900777	0.07032674
122	0x3d299c6c	0.04140894
123	0x3d4ae3d8	0.049533695
124	0x3c939aa0	0.018018067
125	0x3de7fa6e	0.113270625
126	0xbd69d03a	-0.057083346
127	0xbd8dd8fe	-0.069261536
128	0x3d502ae5	0.050822157
129	0xbd79bbd5	-0.060970146
130	0xbd898acf	-0.06715929
131	0x3aa88822	0.0012857954
132	0xbdacb48b	-0.08432873
133	0x3daa9d3c	0.08330771
134	0x3b91bf0e	0.0044478243
135	0xbdc28207	-0.09497457
136	0x3dcef026	0.101043984
137	0xbc2d82d3	-0.010590273
138	0x3d3b69fd	0.045755375
139	0xbd6b5235	-0.057451446
140	0xbd4b0ac4	-0.049570814
141	0x3ddc880f	0.107681386
142	0xbd9f8bc8	-0.07790333
143	0x3e093953	0.13400774
144	0xbd6870ce	-0.056748204
145	0xbcbd6f58	-0.023124382
146	0x3d91e3b7	0.07123511
147	0x3da9550a	0.08268173
148	0x3c9c20ac	0.019058548
149	0x3c0631f4	0.008190621
150	0xbc3f7741	-0.011686147
151	0x3e211068	0.15728915
152	0xbcac1a27	-0.021008564
153	0x3e388dbf	0.18022822
154	0xbbc1eb99	-0.005917978
155	0x3e3425c0	0.17592525
156	0xbbc8a1f2	-0.006122821
157	0xbcddb906	-0.027065765
158	0xbcd22d08	-0.025656238
159	0x3d9b8080	0.07592869
160	0xbd6017a9	-0.054710064
161	0x3c5cd8e3	0.013479444
162	0x3e2fcac3	0.17167191
163	0xbc750d39	-0.014956766
164	0x3deab83e	0.11460923
165	0xbd7f7097	-0.062363233
166	0x3dab2941	0.08357478
167	0x3d360002	0.0444336
168	0x3c679f44	0.014137093
169	0xbd5be3c2	-0.053684004
170	0xbd8f1732	-0.06986846
171	0x3ce2ead4	0.027699865
172	0x3d32c38a	0.04364351
173	0x3d638039	0.055542205
174	0x3d31f2b4	0.04344435
175	0xbcb8d054	-0.022560276
176	0x3d2cff33	0.042235564
177	0x3d158e37	0.03651258
178	0x3db3673d	0.087599255
179	0xbd303a83	-0.04302455
180	0x3c202fbc	0.009777006
181	0xbd341d40	-0.043973207
182	0x3d822fb3	0.06356754
183	0x3e14fcfc	0.14549631
184	0x3e05a9b4	0.13053018
185	0x3e0f7601	0.14009859
186	0x3d7a39d5	0.06109031
187	0xbd99c202	-0.07507707
188	0xbcd64aed	-0.026158774
189	0x3d4472a9	0.04796091
190	0x3e3447e9	0.17605557
191	0xbbb75300	-0.005594611
192	0x3cd766c2	0.026294116
193	0x3d2af8cc	0.041741177
194	0x3de907ff	0.11378478
195	0x3dffeb31	0.12496031
196	0xbb291603	-0.0025800474
197	0x3db9dd36	0.09075396
198	0xbd0a8e10	-0.033826888
199	0x3c5e05e9	0.013551214
200	0xbdd68e0d	-0.10476313
201	0x3d26babb	0.040705424
202	0x3ced11f5	0.028939227
203	0xbd16a4e5	-0.03677835
204	0x3c93c475	0.018038014
205	0xbe014ab2	-0.1262615
206	0xbd2d619a	-0.04232941
207	0xbe13fefc	-0.14452738
208	0x3ca99a8b	0.020703575
209	0xbbf11fca	-0.007358526
210	0xbd4ebc09	-0.050472293
211	0xbd508981	-0.050912384
212	0x3dcb92dd	0.09940121
213	0x3dbeb5b4	0.09312001
214	0xbde03223	-0.10947063
215	0xbb221cc1	-0.0024736377
216	0xbd8b55ee	-0.06803499
217	0x3da6df9c	0.08148119
218	0x3da113dc	0.07865116
219	0x3d2015a1	0.039083127
220	0x3dd4e1d6	0.10394637
221	0xbdd32516	-0.10309808
222	0xbd8bfb91	-0.06835092
223	0x3db03cb0	0.08605325
224	0xbde45c46	-0.11150412
225	0x3c13f29a	0.009030009
226	0x3ca2f6f4	0.019893147
227	0xbd7ae679	-0.061254952
228	0xbd8950ed	-0.067048885
229	0x3e01c710	0.12673593
230	0x3c2b3cd2	0.010451512
231	0xbdb334c8	-0.087503016
232	0xbdd54fe8	-0.104156315
233	0xbd4f4bac	-0.050609276
234	0xbd33d6ac	-0.0439059
235	0x3c6e337c	0.014538642
236	0xbdb2dd4c	-0.08733615
237	0x3d4383a2	0.047732957
238	0x3ce2659e	0.027636345
239	0xbd834da3	-0.064112924
240	0x3b561a72	0.0032669571
241	0x3c203f2a	0.0097806845
242	0xbd522ee1	-0.05131424
243	0x3a94e74e	0.0011360438
244	0x3dec5daf	0.11541306
245	0x3d26c4c5	0.040714998
246	0x3c023948	0.007948227
247	0xbde12f73	-0.10995378
248	0xbd5a39b3	-0.053277683
249	0xbcda6197	-0.026657863
250	0x3c402dff	0.011729716
251	0xbd3ed699	-0.046591375
252	0x3c106e88	0.008815415
253	0xbd8067de	-0.06269811
254	0xbd5c9dce	-0.05386143
255	0x3d1cd02e	0.038284473

bias_hh_l0 f4 [300]
0	0x3d77745d	0.060413707
1	0x3c5c6899	0.013452672
2	0x3b3b64ab	0.0028593938
3	0xbd9ce372	-0.07660569
4	0x3e13af42	0.14422324
5	0xbd0348b5	-0.03205176
6	0x3d8ca97c	0.06868264
7	0x3d982f1a	0.07430859
8	0x3e14fd9b	0.14549868
9	0x3d16f856	0.036857925
10	0x3cf18188	0.02948071
11	0x3ddac698	0.1068241
12	0x3d8c1208	0.06839377
13	0x3e1a7af0	0.1508596
14	0x3dc9a21b	0.09845372
15	0x3c41fdf0	0.011840329
16	0x3dda406c	0.10656819
17	0x3dc33c8a	0.09533031
18	0xbcb51e39	-0.022109138
19	0xbd3b1d81	-0.045682434
20	0x3d51bf85	0.051208038
21	0x3d91c9c4	0.07118562
22	0x3db2f804	0.087387115
23	0xbc114184	-0.008865718
24	0xbd58da88	-0.052942783
25	0xbb7222ff	-0.0036947129
26	0x3c91a4e7	0.017778827
27	0xbcad83bc	-0.02118098
28	0x3db8eb06	0.09029202
29	0x3d4876eb	0.048941534
30	0x3e393ab9	0.18088807
31	0x3cb1ed59	0.021719621
32	0xbd82fdd8	-0.06396073
33	0x3d76cc8c	0.060253665
34	0x3de0ff94	0.10986248
35	0x3e020296	0.12696299
36	0xbd30e407	-0.043186214
37	0xbc4e0f29	-0.012576857
38	0x3cc0b505	0.023523817
39	0x3d3f2182	0.046662815
40	0xbca7b610	-0.020472556
41	0x3cc5248c	0.024065278
42	0x3dfebe9b	0.12438699
43	0xbe03839f	-0.12843178
44	0x3db911ee	0.09036623
45	0x3baa1b25	0.005191224
46	0xbd37240c	-0.04471211
47	0x3d41a06e	0.04727214
48	0x3d98a3b0	0.07453096
49	0xbdbf6dcb	-0.09347113
50	0xbc5775d4	-0.013150651
51	0xbda7fd64	-0.08202627
52	0x3d0f7ffa	0.035034157
53	0xbd0b4559	-0.034001682
54	0x3dbf6e39	0.09347195
55	0xbbb26ac3	-0.005444856
56	0xbc89846b	-0.016786775
57	0xbd0b365a	-0.03398738
58	0xbd28842a	-0.041141666
59	0x3df0fb9a	0.11766739
60	0x3e1de24b	0.15418355
61	0x3d0ae9bc	0.033914313
62	0xbd0540d5	-0.03253253
63	0x3dfc02f6	0.12305252
64	0xbac40fa6	-0.0014958277
65	0x3d2d3e8b	0.042295974
66	0x3d7d1bce	0.061794095
67	0xbdba7c7f	-0.09105777
68	0xbdf5b4ed	-0.119973995
69	0x3e0d0aca	0.13773647
70	0x3e067b59	0.13132991
71	0x3d490694	0.04907854
72	0x3bdd8f35	0.0067614564
73	0x3dc0535a	0.09390898
74	0xbdd46c5a	-0.10372229
75	0x3e275929	0.16342606
76	0x3d338cec	0.043835565
77	0xbd276321	-0.04086602
78	0xbd329532	-0.043599315
79	0x3d965dc8	0.07342106
80	0x3bfca7bb	0.0077104247
81	0x3c9748dd	0.018467361
82	0x3c1fed64	0.009761188
83	0x3c0a5a1e	0.008444337
84	0xbd8690dd	-0.06570599
85	0xbe17ddf2	-0.14830759
86	0x3d032ad3	0.032023262
87	0x3db5cf03	0.08877375
88	0x3d913636	0.07090418
89	0xbcef81f9	-0.02923678
90	0x3b63c5aa	0.0034755268
91	0xbd1fc520	-0.039006352
92	0x3d92328a	0.07138546
93	0xbcdf57e0	-0.027263582
94	0xbd9cf375	-0.07663623
95	0x3e53783f	0.20651339
96	0xbd224198	-0.039613336
97	0xbd4db819	-0.050224397
98	0xbda8eef6	-0.08248703
99	0x3b71c5ea	0.0036891648
100	0x3e08b37f	0.13349722
101	0x3d77984c	0.060447976
102	0x3cd82791	0.026386054
103	0x3d6c915e	0.05775582
104	0x3dead3ff	0.11466216
105	0x3d0d96d8	0.034567684
106	0xbb44c41a	-0.0030024112
107	0x3df1bfc0	0.118041515
108	0x3e30ccff	0.172657
109	0x3e0f3c31	0.13987805
110	0x3d2e501b	0.042556863
111	0x3dd9dfe7	0.10638409
112	0xbce71df5	-0.028212527
113	0x3db37c8a	0.08763988
114	0xbda22e6b	-0.0791901
115	0x3cdb0dff	0.026740072
116	0x3cc6bd98	0.024260327
117	0x3d775e2f	0.060392555
118	0x3d180c04	0.037120834
119	0x3d223671	0.0396027
120	0xbd218bfd	-0.039440144
121	0x3d9f1d9f	0.07769322
122	0x3db4c73a	0.08827062
123	0x3d01a017	0.031646814
124	0xbd9d894c	-0.07692203
125	0x3d0017ac	0.031272575
126	0x3ba69b35	0.00508442
127	0x3d04cd6d	0.03242247
128	0x3d18d882	0.037315853
129	0xbd8317c6	-0.06401019
130	0xbd8aaff5	-0.067718424
131	0x3e2df2f9	0.16987218
132	0xbd899dd9	-0.0671956
133	0x3e18dfd9	0.14929141
134	0x3d1a1d66	0.037625693
135	0xbcf45843	-0.029827243
136	0x3e6e545f	0.23274373
137	0x3e36327e	0.17792699
138	0xbcb66002	-0.022262577
139	0xbda0d429	-0.07852966
140	0x3db468d3	0.08809056
141	0x3e42d17e	0.19025227
142	0xbd992bd8	-0.07479066
143	0x3e314cc1	0.17314436
144	0xbd84da5f	-0.064869635
145	0x3c08ab7a	0.008341664
146	0xbcc85f56	-0.024459522
147	0x3e4df618	0.20113409
148	0xbd34b3db	-0.044116836
149	0xbd47ad23	-0.0487491
150	0x3e0efdfc	0.13964075
151	0x3d605919	0.05477247
152	0x3dad3c72	0.08458795
153	0x3dc21897	0.094773464
154	0xbc8b7663	-0.017024225
155	0x3e449120	0.19195986
156	0xbc9310b9	-0.01795231
157	0xbce67c17	-0.028135343
158	0x3cfab170	0.030602187
159	0x3dfec075	0.12439052
160	0xbc14014e	-0.009033514
161	0x3d243e8a	0.040098704
162	0x3daaf5fc	0.08347699
163	0x3da45cf8	0.08025545
164	0x3decdfe1	0.11566139
165	0x3d9d8482	0.076912895
166	0x3d2e80a4	0.04260315
167	0x3db84380	0.089972496
168	0x3dc79325	0.097448625
169	0x3d30be62	0.043150313
170	0x3c8fbfbc	0.01754748
171	0x3b608da9	0.0034264124
172	0xbde7afe4	-0.11312845
173	0x3d5aa5e9	0.05338088
174	0x3dc3d1c0	0.09561491
175	0x3d264055	0.040588696
176	0x3e45f3e8	0.19331324
177	0x3d1d2459	0.038364742
178	0x3e1ace1f	0.15117691
179	0xbdcd9976	-0.10039036
180	0x3b468a58	0.0030294862
181	0x3d3699c1	0.044580225
182	0x3cc2b049	0.0237657
183	0x3e059243	0.13044076
184	0x3cea9b6e	0.028638568
185	0x396e9f03	0.00022756685
186	0x3cccc4a8	0.024996117
187	0x3d36aa94	0.04459627
188	0x3d294d14	0.041333273
189	0x3dc86fb7	0.09786933
190	0x3db36889	0.08760173
191	0x3e346997	0.17618404
192	0xbc7feb6e	-0.015620096
193	0x3e0956dc	0.1341204
194	0x3d8f0c30	0.069847465
195	0xbd14cd35	-0.036328513
196	0x3cb1e3ec	0.021715127
197	0x3dc4cbc5	0.096091785
198	0x3e0b5542	0.13606742
199	0x3e1e855f	0.15480565
200	0xbe09f942	-0.1347399
201	0x3cb5391c	0.022121958
202	0xbd8418b3	-0.064500235
203	0x3c9d8a87	0.019231094
204	0x3dd1f8a5	0.10252503
205	0xbcb514f1	-0.022104712
206	0xbc4ce6f5	-0.012506236
207	0xbd902f65	-0.0704029
208	0xbd441215	-0.047868807
209	0x3ce7b38f	0.028283862
210	0xbd5a7487	-0.053333785
211	0xbd246faf	-0.040145572
212	0x3de7b0ca	0.11313017
213	0x3ddb430c	0.107061476
214	0xbcd9748d	-0.026544834
215	0x3c14fa51	0.009092883
216	0x3ce901be	0.028443214
217	0x3de2f003	0.11080935
218	0xbdadbe19	-0.08483524
219	0x3d6b35ca	0.057424344
220	0x3c3c6eb2	0.011501001
221	0x3c48f607	0.012265689
222	0xbc6fbe92	-0.014632838
223	0x3c7ae1ea	0.015312651
224	0xbbbbe373	-0.005733901
225	0xbdc4c1ca	-0.09607275
226	0xbdc2f4a4	-0.09519318
227	0xbc922d9d	-0.017844016
228	0x3d04cdaa	0.0324227
229	0x3e034171	0.12817933
230	0xbe1268a3	-0.14297728
231	0x3ca1d325	0.019754002
232	0x3c891981	0.016735794
233	0x3d4f78cf	0.05065232
234	0x3d76ae53	0.060224842
235	0x3d4b8b29	0.04969326
236	0x3d4f7f6a	0.05065862
237	0x3d114316	0.03546437
238	0x3d2db102	0.042405136
239	0xbd41f649	-0.047354016
240	0x3c655ab3	0.013998675
241	0xbdf2b5aa	-0.11851056
242	0x3d18f424	0.037342206
243	0x3ce305af	0.027712671
244	0xbd4a4a79	-0.04938743
245	0x3ad8cce3	0.0016540553
246	0x3d2b2075	0.041779
247	0xbd9dfc50	-0.077141404
248	0xbd09e2ef	-0.033663686
249	0xbca307a9	-0.019901114
250	0xbda03136	-0.07821886
251	0xbd784b37	-0.060618605
252	0x3d26e77a	0.040748097
253	0x3cd22f9b	0.025657466
254	0xbbf540ee	-0.007484547
255	0xbe064c20	-0.13114977

weight_ih_l1 f4 [300, 100]
0	0x3c956a26	0.018239092
1	0x3d06a406	0.03287127
2	0x3d8c043b	0.068367444
3	0x3d68dd7b	0.056851845
4	0xbdaed84e	-0.085373506
5	0x3d55299d	0.05204164
6	0x3d818899	0.06324882
7	0x3dc569ff	0.09639358
8	0xbda1302d	-0.07870517
9	0x3cb48289	0.0220349
10	0x3ddea3aa	0.1087106
11	0x3dc98601	0.09840012
12	0xbe215484	-0.15754896
13	0x3adcdd3d	0.0016850602
14	0xbc341def	-0.010993465
15	0x3e1bf79a	0.15231171
16	0xbbd84f7a	-0.006601271
17	0xbbf8ab1a	-0.0075887563
18	0x3dd16d0a	0.10225876
19	0xbe04cc10	-0.12968469
20	0xbd674547	-0.056462552
21	0x3ceb297b	0.028706303
22	0x3d27f1ce	0.041002087
23	0xbe1de2fe	-0.15418622
24	0x3dc2124b	0.09476145
25	0x3d885588	0.06656939
26	0xbe45fb2a	-0.19334093
27	0xbd89b07b	-0.06723114
28	0x3d475a85	0.04867031
29	0xbc51a578	-0.0127957985
30	0x3ddb6760	0.107130766
31	0x3e087abd	0.13328071
32	0x3daa9240	0.08328676
33	0x3d3fef0a	0.046858825
34	0x3d0189d2	0.031625576
35	0x3d8d05eb	0.068858944
36	0x3d94e932	0.07271041
37	0xbd4a0de1	-0.049329642
38	0xbdd2e470	-0.10297477
39	0xbc201781	-0.009771229
40	0x3cc76f9c	0.024345212
41	0x3d272e83	0.04081584
42	0x3ba986a8	0.005173523
43	0x3db0335f	0.08603548
44	0x3da7e568	0.08198053
45	0x3b62469d	0.0034526952
46	0x3d9a71e0	0.07541251
47	0xbd3b4760	-0.045722365
48	0x3d60bbaa	0.05486647
49	0xbd635a4d	-0.05550604
50	0x3da108bf	0.07862996
51	0x3c1cb246	0.009563988
52	0xbc1fe0e8	-0.009758212
53	0x3e46ca77	0.19413172
54	0x3c4acda3	0.012378129
55	0xbe11c23e	-0.14234254
56	0x3cf02231	0.029313179
57	0xbd5e597b	-0.054284554
58	0x3c6d647b	0.014489288
59	0xbce610f3	-0.028084254
60	0x3d7d813b	0.061890822
61	0xbe0923ba	-0.13392535
62	0x3daa9363	0.08328893
63	0xbc8507b3	-0.016239023
64	0x3d77d108	0.060502082
65	0x3cbf5517	0.023356004
66	0xba9b7787	-0.0011861183
67	0xbc5bc595	-0.013413806
68	0xbd67f554	-0.056630448
69	0xbd8e8a61	-0.069599874
70	0xbdb2852a	-0.08716805
71	0x3d90846c	0.070565075
72	0x3db64e14	0.08901611
73	0xbd812b84	-0.06307128
74	0x3d5cf4f3	0.05394454
75	0xbcfdba4d	-0.030972624
76	0x3c5503d3	0.0130014
77	0x3d9cdd55	0.07659403
78	0xbabe50fd	-0.0014519986
79	0x3cc23907	0.023708833
80	0xbd41cf6c	-0.047316954
81	0x3c771702	0.015081169
82	0x3d2b6787	0.04184678
83	0x3d196f48	0.03745964
84	0xbbde2029	-0.006778736
85	0xbdb79381	-0.08963681
86	0x3bd23bee	0.0064158356
87	0xbde879fc	-0.11351392
88	0x3e2fc7ea	0.17166105
89	0xbd153158	-0.03642401
90	0xbd659deb	-0.056058805
91	0xbd9d483c	-0.07679793
92	0x3da679c1	0.081286915
93	0xbcdc35af	-0.026881067
94	0xbdc17953	-0.09446969
95	0x3d3472e0	0.044054866
96	0x3d572454	0.05252488
97	0x3da58c3b	0.080833875
98	0xbcfda7f6	-0.03096388
99	0x3d7a1603	0.06105615
100	0x3d8d7c79	0.06908507
101	0xbd8a859b	-0.067637645
102	0xbdde5303	-0.10855677
103	0x3dc18480	0.094491005
104	0xbe006118	-0.12537038
105	0x3dc1804f	0.09448301
106	0x3d3bd324	0.045855656
107	0x3d1ce3ab	0.03830306
108	0xbdae20af	-0.08502328
109	0xbd572d62	-0.052533515
110	0x3c9b2f24	0.018943377
111	0xbde11899	-0.1099102
112	0xbb0a628e	-0.0021115872
113	0x3de70602	0.11280443
114	0x3d814904	0.06312755
115	0x3e00f76a	0.12594381
116	0x3d8add96	0.067805454
117	0xbc1545c3	-0.009110871
118	0xbd58bf67	-0.05291691
119	0x3be265de	0.006909116
120	0x3c187f94	0.009307761
121	0x3d9a5360	0.07535434
122	0x3c9c4aaf	0.01907858
123	0xbe1c8483	-0.15284924
124	0xbd8c4e72	-0.068509
125	0x3d5a42f0	0.053286493
126	0xbda3f7e9	-0.080062695
127	0xbd7b5237	-0.061357703
128	0xbd80087d	-0.06251619
129	0xbca1431a	-0.019685317
130	0x3d1669dc	0.03672205
131	0x3dd12d7d	0.10213754
132	0xbd864b9b	-0.06557389
133	0xbe07d3d8	-0.13264406
134	0xbd5fcf2d	-0.054640938
135	0x3c26e929	0.010187426
136	0x3d65b941	0.056084875
137	0x3ddd0644	0.10792211
138	0xbcc1169f	-0.023570357
139	0xbd3d2bc7	-0.046184327
140	0xbdadb9ce	-0.08482705
141	0xbbae7d6a	-0.005325009
142	0xbd8622ed	-0.0654963
143	0xbd142115	-0.036164362
144	0xbda4a2c3	-0.08038857
145	0x3d05c699	0.0326601
146	0x3d1edc35	0.038784225
147	0xbc97f382	-0.01854873
148	0xbc8a78b2	-0.016903255
149	0x3dcb789d	0.099351145
150	0xbc46c83d	-0.012132701
151	0xbd5610e2	-0.052262194
152	0x3c2c233f	0.01050645
153	0x3d196440	0.03744912
154	0x3d969e66	0.07354431
155	0x3dbdbc01	0.092643745
156	0xbd90937f	-0.07059383
157	0x3d778b98	0.06043586
158	0x3d5b42fe	0.053530686
159	0xbda74fc4	-0.08169511
160	0xbd880157	-0.066408806
161	0xbca18d58	-0.019720718
162	0x3c109021	0.0088234255
163	0x3db352e8	0.087560475
164	0xbdfb8b59	-0.12282438
165	0x3d3f3300	0.046679497
166	0xbd3a0923	-0.04541887
167	0xbd59271a	-0.053015806
168	0x3b9f1dc5	0.0048558437
169	0x3d1d4f80	0.038405895
170	0x3d15387c	0.03643082
171	0x3d628df4	0.05531116
172	0xbdbbb26c	-0.09164891
173	0xbde6d7a4	-0.11271599
174	0xbd9d22e0	-0.076726675
175	0xbcc7e46a	-0.024400908
176	0x3dd72c2c	0.10506472
177	0x3d7ed6c8	0.06221655
178	0xbca2ed1a	-0.01988845
179	0x3c39f82d	0.011350674
180	0xbbcd87e0	-0.006272301
181	0x3d6db902	0.058037765
182	0x38fc9ff9	0.000120460936
183	0x3d815674	0.06315318
184	0xbc820fd9	-0.015876697
185	0x3cfcb586	0.030848276
186	0x3d8e7ef2	0.06957807
187	0x3dc6f993	0.09715571
188	0xbd2bad20	-0.04191315
189	0x3d2ea65a	0.042639114
190	0xbd6826da	-0.056677677
191	0xbdcdacbe	-0.100427136
192	0xbcead190	-0.02866438
193	0xbda379a2	-0.07982184
194	0xbe0f4c0a	-0.1399385
195	0x3e1d0671	0.15334488
196	0x3da7f6e3	0.08201387
197	0x3dc1946c	0.09452137
198	0xbcbb5080	-0.022865534
199	0xbd575388	-0.052569896
200	0x3e2a22b0	0.16614795
201	0xbd8e39dd	-0.0694463
202	0xbd1866a0	-0.037207246
203	0x3e226ce3	0.1586185
204	0xbde1974c	-0.11015186
205	0x3e1cd8fa	0.15317145
206	0x3d950345	0.07276014
207	0x3cc139cd	0.023587132
208	0x3a131168	0.0005610199
209	0xbd447b9a	-0.047969438
210	0xbe0c873d	-0.13723464
211	0x3b98329e	0.004644706
212	0xbcdaaca7	-0.026693655
213	0x3cfe1786	0.031017076
214	0xbde85e22	-0.113460794
215	0x3d6fea86	0.05857327
216	0x3dcca230	0.09991872
217	0x3de0541b	0.10953542
218	0x3c843f53	0.016143477
219	0x3d5cd762	0.053916343
220	0x3d5162f0	0.051119745
221	0xbd40936f	-0.047015604
222	0xbd706bf3	-0.0586967
223	0xbd800b50	-0.06252158
224	0xbd359cd1	-0.044339005
225	0x3bd78a90	0.0065777972
226	0x3d9d5e8d	0.0768405
227	0xbbdfe5f5	-0.006832833
228	0xbd9565dc	-0.07294819
229	0x3d682e67	0.056684878
230	0xbb1c4d9d	-0.0023849972
231	0x3d64d70a	0.05586914
232	0x3d12630c	0.03573899
233	0xbda4ea6f	-0.08052527
234	0x3cf76306	0.030198585
235	0xbbfb988f	-0.0076780985
236	0x3da30658	0.07960194
237	0xbd0527d2	-0.03250868
238	0x3d05f9be	0.032708876
239	0xbdb87e92	-0.09008516
240	0xbd3cbfcd	-0.046081353
241	0x3d17d180	0.03706503
242	0xbd114f7c	-0.035476193
243	0xbdcb1aaa	-0.09917195
244	0xbd3102ee	-0.043215685
245	0x3c931123	0.017952507
246	0x3dd0bc43	0.10192158
247	0x3dffd43b	0.124916516
248	0x3e16c8cb	0.14725034
249	0x3d8005a0	0.06251073
250	0xbc76afbb	-0.015056546
251	0xbdc4e547	-0.09614044
252	0xbdd332c6	-0.10312419
253	0x3d410938	0.047127932
254	0xbd87ef53	-0.06637444
255	0xbcf4baf1	-0.029874297

weight_hh_l1 f4 [300, 100]
0	0x3cad497f	0.02115321
1	0x3d60f26f	0.054918703
2	0x3cfdd1aa	0.030983765
3	0xbcb258d7	-0.021770878
4	0x3d625225	0.05525412
5	0xbccc1a97	-0.024915023
6	0xbd2d8b0d	-0.042368937
7	0x3df1a6fb	0.11799427
8	0x3df9bac2	0.12193824
9	0xbcfce0d0	-0.030868918
10	0x3e07bb2f	0.13254999
11	0xbd335995	-0.043786604
12	0x3d59ec2d	0.05320375
13	0xbdd4cf9d	-0.103911616
14	0xbd0f1093	-0.034927916
15	0xbd652b4c	-0.055949494
16	0xbb99f049	-0.0046978337
17	0xbcd6248c	-0.026140474
18	0x3d7cd9dc	0.061731204
19	0xbd3c5a6d	-0.045984674
20	0xbbce58cc	-0.0062972065
21	0xbdf74bc3	-0.12074997
22	0x3e0f5565	0.13997419
23	0x3dc906a1	0.098157175
24	0xbd0cfa3c	-0.03441833
25	0xbd286b68	-0.041118056
26	0x3d589e57	0.05288538
27	0xbdd178ba	-0.10228105
28	0x3d351ac8	0.044214994
29	0x3cf73a2a	0.030179102
30	0x3c4d7350	0.0125397
31	0xbcedf2d0	-0.029046446
32	0x3d9f559a	0.07779999
33	0x3d97d77e	0.07414149
34	0xbd175dca	-0.03695468
35	0xbd3eaebd	-0.046553362
36	0xbc01aeb0	-0.007915184
37	0x3d2e690c	0.04258065
38	0x3decc216	0.115604565
39	0xbde6945e	-0.112587675
40	0x3d94af97	0.072600536
41	0xbca46c3e	-0.020071145
42	0xbd7651ba	-0.060136534
43	0x3e3189d2	0.1733773
44	0xbdfece01	-0.12441636
45	0xbd6e6393	-0.05820043
46	0xbaab9039	-0.0013089246
47	0xbe174180	-0.1477108
48	0xbcaab9ad	-0.02084049
49	0xbd952c5a	-0.0728385
50	0xbe14255c	-0.14467376
51	0xbcbead68	-0.023276046
52	0xbc903788	-0.017604604
53	0xbd9cc9d3	-0.076556824
54	0x3e2e76a5	0.17037447
55	0x3e3350f5	0.17511351
56	0xbe58ed32	-0.21184233
57	0xbd83f12b	-0.064424835
58	0xbd181be3	-0.03713597
59	0x3d284e39	0.041090224
60	0x3d23d29d	0.03999578
61	0xbafcf7e0	-0.0019299947
62	0x3d4d928c	0.050188586
63	0xba6e7aaf	-0.0009097261
64	0xbb041c64	-0.0020158524
65	0xbd0be3f7	-0.03415295
66	0x3c26205a	0.010139549
67	0xbdf20034	-0.11816445
68	0x3e1f1ad6	0.15537581
69	0x3e0812d7	0.13288437
70	0xbdf91bd8	-0.12163514
71	0x3df9e384	0.12201598
72	0x3db70eb2	0.0893835
73	0x3cb7cb16	0.022435706
74	0xbcce0064	-0.02514667
75	0xbd009c78	-0.03139922
76	0xbd80eb31	-0.06294859
77	0x3d23796d	0.039910723
78	0xbda4b48e	-0.080422506
79	0xbdf5214a	-0.1196924
80	0x3d236264	0.039888754
81	0x3cf9311c	0.030418925
82	0xbda33495	-0.079690136
83	0x3d888115	0.066652454
84	0x3cd51b85	0.026014099
85	0xbe15ee69	-0.14641728
86	0xbddba239	-0.10724301
87	0x3df6bde2	0.12047936
88	0xbd186d78	-0.037213773
89	0xbdbfbb06	-0.09361844
90	0x3df758a7	0.12077456
91	0x3d18aabe	0.037272207
92	0x3e42b3e9	0.19013943
93	0xbdd9a8f6	-0.1062793
94	0xbbdf5beb	-0.0068163774
95	0xbc864a2d	-0.016392792
96	0x3dfd517e	0.12369059
97	0xbc9f9adf	-0.019483028
98	0x3d47519e	0.04866182
99	0xbbd170f6	-0.00639164
100	0x3d10467c	0.03522347
101	0xbd08e670	-0.033422887
102	0xbcdc229a	-0.026871968
103	0xbd9853a2	-0.07437827
104	0xbc547736	-0.012967875
105	0xbe3f5e72	-0.18688372
106	0x3d11c3d5	0.03558715
107	0x3e22bfad	0.15893431
108	0x3c3ddf28	0.011588849
109	0xbd232194	-0.039826944
110	0x3d666ea6	0.056257866
111	0xbdaf0600	-0.08546066
112	0x3d8e026a	0.06934054
113	0xbc08ecd4	-0.0083572455
114	0x3d436dcb	0.04771213
115	0xbcf55059	-0.02994554
116	0x3c3876b2	0.011258768
117	0x3e00146f	0.12507795
118	0x3de23c1c	0.11046621
119	0xbd870aa9	-0.0659383
120	0xbd1883f8	-0.03723523
121	0xbc846b7d	-0.016164536
122	0xba159a42	-0.0005706885
123	0x3d88e044	0.066834
124	0xbcd19f9e	-0.025588807
125	0xbca56c48	-0.020193234
126	0xbde716b6	-0.11283629
127	0xbdb3efeb	-0.08785995
128	0x3e24e59b	0.16103213
129	0x3db44e5c	0.08804008
130	0xbd223fad	-0.039611507
131	0x3dd396b8	0.10331482
132	0x3d9555cd	0.07291756
133	0xbcf15df4	-0.029463746
134	0xbde245d6	-0.110484764
135	0xbdd6c1d1	-0.10486186
136	0xbda39504	-0.07987407
137	0xbdeec5e8	-0.11658841
138	0x3b4a42a4	0.0030862475
139	0xbda4a508	-0.0803929
140	0x3e16b1bb	0.14716236
141	0xbd5eb102	-0.054368027
142	0x3d8925ac	0.066966385
143	0xbd07fd2b	-0.033200424
144	0xbc2dc1e8	-0.010605313
145	0x3d81188f	0.06303512
146	0xbd33ef2a	-0.043929256
147	0xbdfbf09a	-0.123017505
148	0xbe138741	-0.14407064
149	0xbdae0ab8	-0.08498138
150	0x3daefd87	0.0854445
151	0x3d424085	0.047424812
152	0x3c115b6b	0.008871893
153	0x3d289d79	0.041165803
154	0x3cf6e719	0.030139493
155	0xbcd7c8cc	-0.026340865
156	0xbde83d63	-0.113398336
157	0x3e0b1536	0.1358231
158	0x3d93cb17	0.07216471
159	0xbd0522bd	-0.032503832
160	0x3d6d8c22	0.05799497
161	0xbd045f6d	-0.032317568
162	0x3cfc17ee	0.03077313
163	0x3c8b5453	0.017007982
164	0x3dd1e09c	0.10247919
165	0xbd66f7ab	-0.05638854
166	0xbd467d22	-0.04845918
167	0x3c04a43c	0.008095797
168	0xbd4be822	-0.049781926
169	0xbc7068cc	-0.014673423
170	0xbd351993	-0.044213843
171	0xbb28a6a3	-0.002573409
172	0x3c11ca6a	0.008898357
173	0xbce963ca	-0.028489966
174	0xbd9f0902	-0.0776539
175	0x3dc534cb	0.0962921
176	0xbe1916e8	-0.14950144
177	0x3d5d32ef	0.054003652
178	0xbc0110f0	-0.007877573
179	0xbdb9f059	-0.09079046
180	0xbd6e96db	-0.058249336
181	0x3d62bab7	0.055353846
182	0x3bea8ce8	0.0071579106
183	0x3d27a2ea	0.04092685
184	0x3ce8c18d	0.028412605
185	0xbd953bbb	-0.07286783
186	0xbe142bf9	-0.14469899
187	0xbcaa1a3e	-0.020764466
188	0x3dc49a17	0.09599703
189	0x3d63e1e6	0.055635355
190	0x3d0a83e9	0.033817206
191	0xbade9df8	-0.0016984334
192	0xbd5748a1	-0.0525595
193	0x3ccc5950	0.024944931
194	0xbdbe628e	-0.092961416
195	0xbc740875	-0.014894594
196	0x3e01d0cc	0.12677306
197	0x3d8448db	0.064592086
198	0x3e0d9fc5	0.13830478
199	0xbdcaf1d3	-0.099094056
200	0xbb7fd300	-0.0039035678
201	0xbd3783e1	-0.044803504
202	0xbdd8aa1c	-0.10579321
203	0xbcfd58ea	-0.030926187
204	0xbc263698	-0.010144852
205	0xbce96c57	-0.028494043
206	0x3d43bae6	0.047785662
207	0xbd351568	-0.044209868
208	0x3dc1f069	0.09469683
209	0xbd3d7b81	-0.04626036
210	0x3ce7c5b9	0.028292524
211	0x3d357ce2	0.04430855
212	0x3dd3ca41	0.10341311
213	0xbb6c49ab	-0.0036054652
214	0xbb896ca2	-0.0041938582
215	0xbdb4b3c7	-0.08823352
216	0x3d05f048	0.032699853
217	0x3da57d87	0.08080583
218	0x3d97f9ac	0.07420668
219	0xbdbf6135	-0.09344713
220	0x3d561163	0.052262675
221	0xbd77d0a8	-0.060501724
222	0xbda15801	-0.078781135
223	0x3d88ee35	0.066860594
224	0xbc1a82dc	-0.009430613
225	0x3b10a1ba	0.0022069053
226	0x3b0a3bbb	0.002109273
227	0xbd5a1bec	-0.053249285
228	0xbafd6f22	-0.0019335488
229	0xbc260dfe	-0.010135172
230	0xbe3d2bf4	-0.18473798
231	0xbc62d152	-0.013843851
232	0x3e0eaf9c	0.13934177
233	0x3e13b886	0.14425859
234	0xbcc80ab9	-0.024419175
235	0xbd966206	-0.07342915
236	0x3dc631d8	0.09677476
237	0xbd89850b	-0.06714829
238	0xbcbeba64	-0.023282237
239	0xbcf7bbd8	-0.030240938
240	0x3e14f492	0.14546421
241	0xbb908390	-0.0044102147
242	0x3e16dbf7	0.14732347
243	0x3dd18053	0.10229554
244	0xbce73550	-0.028223664
245	0xbd120588	-0.035649806
246	0x3db603de	0.08887456
247	0xbd40bc6a	-0.047054686
248	0xbe5cb19a	-0.21552125
249	0xbc8806ca	-0.0166048
250	0x3c4e8b93	0.012606519
251	0x3dc76670	0.09736335
252	0x3d3fe8d6	0.04685291
253	0x3d7340a6	0.059387825
254	0xbda1a642	-0.07893039
255	0x3d94f0a2	0.072724596
